checkpoints/ecgcnn.pt (torch, 145309 bytes, 13 tensors)

0.features.0.weight f4 [64, 12, 7]
00000000: 6079 ea3d c568 ac3d be25 753c 0732 013e
00000010: 9a61 debd 8967 babd 5532 41be 4fbc 823e
00000020: c5f0 393e fcd5 48bd 3c0a 6e3d 2f3b 19be
00000030: a01a 93bd 88db 03be 5ae4 193e 190b 403d
00000040: c0c0 8d3d 8afa ffbc 287b d9bd 14de 75ba
00000050: ad27 5dbd 4a11 0fbe 86ed acbd fe20 e23c
00000060: 3e45 a6bd 1313 d73d f298 053e 220a d73d
00000070: b80b e6bc 71d5 13be 4ee2 023e 7591 53bd
00000080: 71c8 983d a30c cabc ab98 d9bd b5b1 6b3e
00000090: 56f3 da3d dded c33d 942d 0cbd f413 16be
000000a0: ff7d 78bd 9f55 cebd 35c9 633d dc23 e23d
000000b0: 5acb e93c 6c90 debd 8498 bf3c f3ce 5bbd
000000c0: 3848 53bd ce50 1a3e ce83 583c 186c ed3b
000000d0: 1df1 51bd d087 bf3d 11d1 17bd 43eb bebd
000000e0: 85a9 203e 178d 093d 51d9 bc3d b62e 20bd
000000f0: 2a2e 463d ed5b 1fbd c912 0b3d 9547 603c
00000100: d932 3c3b 5d7e 8b3b cef4 453e 116f 823b
00000110: 4280 293d 922e c93b f8f6 413e 8c07 ff3c
00000120: ba64 0f3e 05e6 83bd 1435 37be 189f 7fbd
00000130: 8747 2ebd e646 c93d be9f 6f3d 7d88 e93d
00000140: dbf1 8bbd 7c00 43be 8848 83bd 6c9d 1ebe
00000150: 0eab 153e ae6e 58bb b7a5 323d 8156 ffbd
00000160: 23a8 0abe bee8 6ebd 4856 b53c 07e4 2f3d
00000170: 9e15 ac3d ef9c 5f3d b615 e8bd ac2b 83bd
00000180: 0c5a 183e 0009 9a3d 3b79 c6bc 2bfc cbbd
00000190: d627 8ebd 084e 963c 9115 2f3d ba42 6b3d
000001a0: 921a 103e 6ff7 1fbe b357 eebd 3857 27bd
000001b0: ab94 6dbd 4f36 ffbc 3abe f03d 1074 5bbd
000001c0: 17ec a23d 01f6 b8bd bd43 9ebd 64c5 65bd
000001d0: c249 a0bd c37c 81be 41f1 10be b890 56bc
000001e0: 9eeb 6a3c 5d88 69bd ac43 11bd d650 61bd
000001f0: 8683 7e3c 4f64 8d3d 3cf3 8fbd 0547 79bd
00000200: 7bc5 1a3e 791c 493d d7e1 133e 24af 683d
00000210: 63d3 1ebe 29c3 383e 9f14 413d fa5f af3b
00000220: 9b58 80bd f6f6 0ebe 0a79 67bd 4269 39be
00000230: d219 103d fe69 0bbe 3e28 343c b3e7 1ebe
00000240: 406e febd b0f6 bdbd 32f2 1abd f5aa e33d
00000250: e427 723d 306e 38be 7384 03be 0e2a 79be
00000260: fc82 24be 3515 ebbd 9332 4b3e 6dd7 97bd
00000270: e930 b5bb 3147 bbbd 9ff1 01be 5e01 31be
00000280: f611 fc3d 2516 9e3d f430 85ba 367b 2cbe
00000290: 48e1 62bd 05b0 efbd fa0c efbd 8a3f e03d
000002a0: 8da1 7ebc a0b3 04be 0e63 78bd 8817 1c3d
000002b0: f69f 093c 5546 13be 069b 15be 97d4 593c
000002c0: 31c3 35bd f621 c53d c5c9 093e 89a1 17be
000002d0: e0e3 44bd 205e 563c 4d54 cb3d ca54 303d
000002e0: 43a8 d93d 6ab4 883d dcfc 153d f5a4 a5ba
000002f0: d46f e4bb e0e5 07bb 4611 15bc f97e 93bd
00000300: 4510 473c a08e 193e ecf5 cc3d 823c 4a3d
00000310: 3202 94bd c1be cabd 2503 32bc a610 413d
00000320: d237 fcbd 0aa7 e1bd 81c1 113d a595 e53d
00000330: 9305 653d dbb9 33bc ce5b 11bd f182 febd
00000340: 05e5 81bd 68f3 d73c b737 9c3d 12bf da3d
00000350: 223e afbd 2b3a 08be ab8b afbd 38db d63d
00000360: c0dd e83d 8f56 813c b9e2 6a3d b4e4 d7bd
00000370: 7a7f 55be 0faf 88bd 22a2 40bd b5ec 523e
00000380: 4894 b4bd 76b6 253d cd3a 47bc 5b61 13be
00000390: 0c76 9bbe c49a 31be ae37 c83d f9b3 213e
000003a0: f1dd 0a3d 517e 713d b5bb 0a3c 07df 88bd
000003b0: a048 5fbc f1e2 753d 3b1f f6bd e7a5 3ebe
000003c0: aaac 783b 2b75 b7bd 9598 1ebe 9cc2 29be
000003d0: 26b6 88bc 4a3a 32bd d2e3 27bd 7193 e73d
000003e0: a35c a63c 44b4 033c 4eff f2bd 6967 f2bd
000003f0: d7c3 b8bd 9759 22bd 49a5 003d 18ed b1bd
0.11448932 0.08418421 0.014962612 0.1261674 -0.1085846 -0.09101779 -0.18866856 0.25534293
0.18158253 -0.049032196 0.05811523 -0.14963983 -0.07182813 -0.12876713 0.15028515 0.046885584
0.0692153 -0.031247396 -0.10619193 -0.00093791005 -0.053992916 -0.13971439 -0.084437415 0.027603623
-0.08118676 0.10501685 0.13046625 0.104999796 -0.02808176 -0.1443689 0.12781641 -0.05165239
0.07460106 -0.024664229 -0.10624822 0.23017009 0.10690944 0.09566853 -0.034223154 -0.14656049
-0.060667034 -0.10074925 0.055611808 0.11041996 0.028539348 -0.1086739 0.023388155 -0.05366416
-0.051582545 0.15069887 0.013215018 0.007245552 -0.051255334 0.09352076 -0.037064616 -0.09322216
0.15689667 0.03358182 0.09221137 -0.039107047 0.04838387 -0.038906027 0.03395346 0.0136889415
0.002871683 0.004257007 0.19331667 0.0039805253 0.04138208 0.006139585 0.18941867 0.031131528
0.14003268 -0.06440357 -0.17891341 -0.062407583 -0.042548683 0.09827976 0.05850195 0.11402986
-0.0683324 -0.19043154 -0.064103186 -0.15489739 0.14616033 -0.0033024955 0.04361507 -0.12467671
-0.13540702 -0.05832743 0.022135869 0.042942073 0.08402561 0.054593023 -0.11332266 -0.06404814
0.148781 0.07521248 -0.024227729 -0.099602066 -0.06941192 0.018347755 0.042745177 0.057436682
0.14072636 -0.15621732 -0.11637821 -0.040854663 -0.05800311 -0.031153826 0.11755033 -0.053577483
0.07955187 -0.090312965 -0.07727764 -0.05609645 -0.07826568 -0.25290498 -0.14154531 -0.013096027
0.014338402 -0.05701481 -0.035464928 -0.05500873 0.015534287 0.06903898 -0.07028815 -0.060858745
0.15114395 0.04909942 0.1444162 0.056807652 -0.15510325 0.18043198 0.047138806 0.0053520175
-0.062669 -0.13961396 -0.056511916 -0.18106559 0.035180874 -0.13614652 0.010995923 -0.15518074
-0.12423372 -0.092755675 -0.03782863 0.11116592 0.059120074 -0.18010783 -0.12843494 -0.24332449
-0.16065592 -0.11478654 0.19843511 -0.07414136 -0.005529512 -0.09144438 -0.12689827 -0.17285678
0.12308113 0.077190675 -0.0010161684 -0.16843876 -0.055390626 -0.11703495 -0.11672397 0.10949619
-0.015541446 -0.12959146 -0.06064134 0.03810838 0.008399954 -0.14382298 -0.14609918 0.013295314
-0.044375602 0.09625618 0.13455875 -0.14807715 -0.04806888 0.013083965 0.099281885 0.04304961
0.106277965 0.06675036 0.0366181 -0.0012637662 -0.0069713388 -0.0020736381 -0.009098357 -0.072019525
0.012149875 0.14995813 0.100078434 0.04937411 -0.07226981 -0.09899665 -0.0108650075 0.047135018
-0.123153344 -0.11018188 0.03558493 0.11210183 0.05591352 -0.010969604 -0.035487942 -0.12427319
-0.0634251 0.026361182 0.07627814 0.10680975 -0.08556773 -0.1330344 -0.085715614 0.104910314
0.113704205 0.015788345 0.057345126 -0.105416685 -0.2084941 -0.06674015 -0.047029622 0.20598109
-0.08817345 0.04045721 -0.012160015 -0.14392607 -0.303635 -0.17344195 0.09776245 0.1579131
0.033903066 0.058958355 0.008467604 -0.06683164 -0.013628155 0.06003088 -0.120176755 -0.18617974
0.0037944713 -0.08957895 -0.15487893 -0.16578144 -0.016688418 -0.04351262 -0.04098875 0.11307419
0.020307845 0.008038584 -0.11865102 -0.1183613 -0.090217285 -0.03963622 0.03140763 -0.086878

0.features.0.bias f4 [64]
00000000: fb86 afbd 56ed a83d 2466 f43d 5d2e 11be
00000010: ddd3 0f3e e6f9 dc3c 0e9c 28bd c659 6a3b
00000020: 02df 98bd d181 65bd 3768 2b3d f2fd 0cbc
00000030: e5bd 2fbd a5b3 c1bb 9085 0f3e 2ff0 8c3c
00000040: 570a a23d 0881 88bd 68e6 523e 7115 c5bc
00000050: 075d adbd a485 cebc 6da0 0d3e 5d30 15bd
00000060: d38d b4bd 8c96 2a3d f86b fb3c 7975 5fbd
00000070: d5e7 5bbd 7fe9 8dbd 8c9e 85bd 2b44 28ba
00000080: ae69 acbd 0639 bc3d 3570 1cbe 2476 e1bd
00000090: a566 763d 38d2 f53d 10b6 06bd 5840 493e
000000a0: 1ad1 13bd 5b61 6ebd be21 edbc 0896 fe3d
000000b0: e0db 9b3d fe80 78bd ef12 bfbd 5aff 4ebc
000000c0: e54b 04be 9e14 993c 0802 9ebc 8eae e2bd
000000d0: f135 1dbe bae3 a1bd 0b4e b03d 0382 9d3d
000000e0: 6a1c f6bd 1427 06bd 1f39 a83b 1b3e 5abd
000000f0: 12c6 1e3e 64c9 2abc 02fe f8bc de04 42bd
-0.08570667 0.08248393 0.11933544 -0.14177842 0.14045663 0.02697463 -0.04116445 0.0035759076
-0.0746441 -0.056032006 0.041847434 -0.008605467 -0.042905707 -0.005911308 0.14015794 0.017204372
0.079121284 -0.06665236 0.20595706 -0.024058076 -0.08465009 -0.02521021 0.13830729 -0.036423076
-0.08816113 0.04164748 0.030691132 -0.05455539 -0.05368789 -0.069293015 -0.06524381 -0.0006418849
-0.08418594 0.09190564 -0.15277179 -0.11008862 0.060156483 0.12002987 -0.032888472 0.19653451
-0.036088087 -0.058198314 -0.028946754 0.1243096 0.07610297 -0.06066989 -0.09329783 -0.012634123
-0.12919576 0.018686589 -0.019288078 -0.1106845 -0.15352608 -0.079047635 0.086086355 0.076908134
-0.12017138 -0.03275211 0.0051337625 -0.053281885 0.15505245 -0.010423992 -0.030394558 -0.047367923

0.features.1.weight f4 [64]
00000000: a691 853f 619b 413f 3136 7e3f f0ec 853f
00000010: 0c87 863f 7126 703f a1e5 603f 6163 883f
00000020: 24e2 6b3f fa69 823f de9f 7b3f 7210 813f
00000030: 3a6f 693f 3f99 8c3f cbfb 653f aabd 6e3f
00000040: 4919 723f 8bfd 763f 380c 813f 77e6 543f
00000050: 0d57 793f 372c 7f3f 059b 553f d303 6e3f
00000060: 06d6 863f 98a5 4d3f c741 7e3f 016b 393f
00000070: a045 8b3f 69c9 843f 5ae7 843f 81ac 403f
00000080: 6029 693f c9be 7c3f 1a01 693f 14dd 7b3f
00000090: 0739 3b3f 2ebe 693f 083d 6d3f 7ff3 7f3f
000000a0: 52c2 753f 9610 583f 0351 8f3f e9ba 803f
000000b0: 82ed 843f 1091 893f 56ed 8c3f f055 503f
000000c0: af57 723f d63a 5e3f c1c3 723f 46ea 763f
000000d0: 8456 753f 0cf7 5f3f 6dca 9c3f 0a3e 733f
000000e0: eb2c 793f eac7 6c3f 1307 673f 57a7 703f
000000f0: ed2e 5e3f 6f99 7b3f 788f 5d3f 47d9 723f
1.0435073 0.75627714 0.9930144 1.0462933 1.0509963 0.93808657 0.87850386 1.0655328
0.9214194 1.0188591 0.9829081 1.0083144 0.91185343 1.0984267 0.8983733 0.93258154
0.9456983 0.96480626 1.0081854 0.8316416 0.97398454 0.9967684 0.83439666 0.92974585
1.0534065 0.803308 0.9931912 0.724289 1.0880623 1.0373966 1.0383103 0.7526322
0.9107876 0.98728615 0.91017306 0.98384213 0.7313389 0.91305816 0.9267125 0.9998092
0.95999634 0.8440031 1.1196598 1.005704 1.0384982 1.0747395 1.1009929 0.8138113
0.94665045 0.86808527 0.94829947 0.9645122 0.9583514 0.8748634 1.2249275 0.9501654
0.97334164 0.92492545 0.9024517 0.9400534 0.86790353 0.98280996 0.8654704 0.9486279

0.features.1.bias f4 [64]
00000000: 5b61 32be d9b8 4cbe e441 c33d ea84 64be
00000010: 9173 fbbd ae7b c83c 6ac9 a53e d4a7 4fbe
00000020: 689d bcbe 63f2 15bf e62d ec3b f0c2 763d
00000030: 76b7 d3be 55e7 aebd c466 45bd 8510 edbd
00000040: c0d3 d43d 41ad b7be 599e c13c 82df 3e3e
00000050: 28e2 ffbd 6007 06bd 9ee2 213e f106 f03d
00000060: 4486 753d fb78 26be 7f2a 483e abfa 59bf
00000070: e02f 5bbd 1364 34bd daf2 13be 65a3 fbbe
00000080: 3cd3 fabe 7993 2c3e 3629 b03e 83ad 6c3e
00000090: fd49 d9be d4bc 853d eb8d d03e 72b2 89be
000000a0: f25c b3bd e547 a5be f25d c43d ca79 9fbd
000000b0: f59b f73d 8a2d 183e 0040 ddbd 1fa1 0ebf
000000c0: 41c4 873d 216f 3cbf 83a4 86be d8a0 36be
000000d0: 26f1 303e 3ddd 943e 51ce a8bd 9032 4fbe
000000e0: 6e5f 2dbf 3a4e 213e 7737 2b3e 36a5 41be
000000f0: 0fdb 20be 09cb 8abd 7e1c e9be 62cc 9ebd
-0.1741995 -0.19992389 0.09534052 -0.22316328 -0.12277902 0.024473038 0.3238023 -0.20278865
-0.3683884 -0.5857298 0.00720762 0.0602445 -0.41350907 -0.08540217 -0.048193708 -0.115754165
0.103919506 -0.3587437 0.023635076 0.18639949 -0.12494308 -0.032721877 0.15809104 0.11720074
0.0599425 -0.16257088 0.19547461 -0.85148114 -0.053512454 -0.04404075 -0.1444811 -0.49148098
-0.48989284 0.16853131 0.3440644 0.23113064 -0.4243926 0.06530157 0.40733275 -0.26893955
-0.08757962 -0.32281414 0.09588231 -0.07786901 0.12090293 0.14861122 -0.10803223 -0.557146
0.06629229 -0.7360707 -0.26297387 -0.17834795 0.17279491 0.2907504 -0.08242477 -0.20234132
-0.6772374 0.15752497 0.16720377 -0.18910679 -0.15708564 -0.06777007 -0.4552955 -0.07753827

0.features.1.running_mean f4 [64]
00000000: 7a43 b6bd d5f1 953d 616d f33d da28 11be
00000010: a642 0d3e 1571 ea3c 3209 43bd d53e e1b8
00000020: b9ad 94bd 3a43 50bd 288c 253d 25c6 0a3b
00000030: 8a84 1bbd 9492 e5bb 74d7 023e e664 253c
00000040: 449b a83d 37a2 4fbd 1611 473e 1b18 d8bb
00000050: 7dcd a7bd 26f2 3ebc 3eed 093e 77eb 10bd
00000060: 44c9 b2bd 09c2 273d 1798 ff3c 83ef 81bd
00000070: 1814 75bd 7a11 8dbd deb0 84bd e07d 2d3b
00000080: 4226 9ebd b8d4 c13d deed 19be 3641 f7bd
00000090: 3c51 863d 1488 fd3d 98e6 12bd 43ac 4b3e
000000a0: 9b74 0dbd 8ba0 a9bd 6d6b c7bc d6e8 f83d
000000b0: 2a85 a83d bd83 73bd cc62 c4bd b76b b6bc
000000c0: 7d74 1abe d7c1 8d3c f043 6fbc 9eec edbd
000000d0: 963b 1abe db78 73bd 5ed7 b23d 4e01 9e3d
000000e0: f88e efbd 19fe 02bd e5bb 0a3b cd78 80bd
000000f0: e630 1c3e 4903 37bc 98de 04bd 672f 3bbd
-0.08899589 0.073215164 0.11886097 -0.1417574 0.13794956 0.028618375 -0.04761619 -0.000107405394
-0.072596975 -0.050845362 0.040416867 0.0021175232 -0.037968196 -0.007005999 0.12777501 0.010094857
0.082327396 -0.05069181 0.19440112 -0.0065946705 -0.08193491 -0.011654412 0.13469407 -0.035380807
-0.087297946 0.04095653 0.031200452 -0.06344511 -0.059833616 -0.06888099 -0.06479047 0.0026472732
-0.07722141 0.09464401 -0.15032145 -0.12072985 0.06558463 0.123794705 -0.035864443 0.19889931
-0.03453503 -0.08282574 -0.024343217 0.12153785 0.08228524 -0.059451807 -0.095891565 -0.02226816
-0.15083499 0.017304344 -0.0146036 -0.11617397 -0.15061793 -0.05944143 0.08732484 0.077150926
-0.11697191 -0.031980608 0.0021169123 -0.06273041 0.15253028 -0.011170217 -0.032438844 -0.045699503

0.features.1.running_var f4 [64]
00000000: 49a0 3140 2795 3340 ae24 5240 61fa 0640
00000010: cc69 4b3f 7731 1c40 fb74 9a40 9827 b53f
00000020: f53b 4440 1a7e 3140 6de5 3040 fcde 6340
00000030: 52f3 1140 28aa bb3f 3636 ab3f 0216 0840
00000040: 6f89 7540 5a90 9d40 5bb3 2840 9ea4 8340
00000050: 0ba0 803f d439 aa3f 22d7 5540 5db9 f53f
00000060: 7b13 5c40 c938 5940 86ed 9740 b74b a140
00000070: d23b ee3f c3f9 5e3f 4abd 2840 781c 0c40
00000080: 27ae 1840 0d50 8c40 ab11 6c40 8d2d ca3f
00000090: d053 ca3f 0b91 a440 6315 d43f 8c6a 0640
000000a0: 2ed8 893f 99de 7e40 7ff1 7b40 8b53 4640
000000b0: d769 5e40 1aef 2a40 1b7a 853f 1425 5a40
000000c0: e39c 4a40 ba85 fa3f 2ed8 833f 08dd fe3f
000000d0: 141e ab40 aa28 9040 9d3e cb3f ca67 cf3f
000000e0: 8adc 5840 81c5 c93f afe9 1540 715c 3b40
000000f0: f49d 2b40 52e9 3e40 835f 2840 cbd1 c43f
2.775408 2.8059785 3.2834888 2.109032 0.7945831 2.440519 4.82678 1.4152708
3.0661595 2.7733216 2.764003 3.560485 2.280476 1.4661303 1.3375919 2.1263433
3.8365133 4.923871 2.635947 4.113845 1.0048841 1.3298898 3.3412557 1.9197193
3.438689 3.394091 4.7477446 5.0404925 1.8612006 0.87099856 2.6365533 2.1892376
2.3856294 4.384772 3.6885784 1.5795151 1.5806828 5.1427054 1.6569027 2.100253
1.0769098 3.9823363 3.9366148 3.098849 3.47521 2.6708436 1.0427889 3.408513
3.1658256 1.957206 1.0300348 1.9911203 5.3474216 4.504964 1.5878483 1.6203549
3.3884606 1.5763398 2.342388 2.9275172 2.6815157 2.9829907 2.6308296 1.5376524

0.features.4.weight f4 [64, 64, 7]
00000000: 3146 c63d 6d82 103e d371 153e f66a c63d
00000010: 7428 093e b866 9d3d 84a6 903d 64af 42bc
00000020: d795 4f3d b044 8f3d 69c3 bc3c 7b13 1fbc
00000030: 580f ee3b dcdb 893d a886 753d 910a a13d
00000040: aba0 183d 914a 9a3d ddc1 003e 0681 983d
00000050: bc78 583d 6b29 3f3c a8f2 a23d b771 0e3e
00000060: 213b 093e aa53 a03d bcbe 9c3d 9d57 863d
00000070: 5fca fbbd 071b 10be 28f9 cebd b30a fabc
00000080: 404b 99bd afdd debd ad4f aebd 3a3b ec3d
00000090: 6b82 993d dc7d a23d 6d39 3a3d c911 9c3d
000000a0: 27f8 e83c 88af 463c 5236 07bd 25fd 65bd
000000b0: 7e5e d2bd 69bd a8bd a9b5 ffbd 3be3 f1bd
000000c0: ed7b 09be 5efb 03bd c72c 4fbd 03cd 13bd
000000d0: a8e6 89bd 5a1e 34bd 0a2c 95bd 15e6 a9bd
000000e0: 5a22 61bd e21a 4bbd 5d01 82bd d3a9 c1bd
000000f0: 6d9d 8abd 4bee 4cbd ae2c b4bd 4083 42be
00000100: 89d0 6fbe aede 8ebe dff1 92be 207e 99be
00000110: 2674 58be f519 32be 1fad 3cbd cb4a 48bd
00000120: bf34 9bbd 3102 6abd 05c5 6dbd fbf2 93bd
00000130: bd43 d5bd e138 f83d bd55 093e 4bd4 cd3d
00000140: 821f bd3d c027 993d 3a02 363d f461 2b3c
00000150: 9445 bdbd 9fa8 bcbd 0135 07be e2d9 03be
00000160: 2ff3 e5bd 6e5c d6bd 6ee9 e8bd d66c 07be
00000170: 0843 19bd d9ca 153d 299b 423d 6a5f df3c
00000180: 5af9 b1bb d2ca 5b3d 7f41 083d 6138 5abb
00000190: c40e 203b a4f1 073d b184 39bc 4515 213c
000001a0: 5cf6 b03c 75a5 5cbc b46b bb39 4450 123d
000001b0: cab8 7f3c 6f27 bbbc a373 5c3d c6f1 853d
000001c0: c3c0 343d 536b 8e3d 8d9e b83d 122b a43d
000001d0: 056b 443d afee b73c b5fd e83c 5609 0dbd
000001e0: 3598 d8bc a083 a5bc a9ce 0f3c 7b43 0ebd
000001f0: e7d9 fbbc 2e28 923c b08f 853d 1c07 bc3d
00000200: 97ca 663d e9fd c43c a148 273d 7ef3 283d
00000210: 81aa 553d 24cf ab3b 8ba9 09bd 7377 e4bc
00000220: 65dc 90bd e5ab d9bd ab5d 0abe 1659 21be
00000230: 3f60 e8bb 8426 bcbb 8127 abbd e2be 90bd
00000240: 0908 c1bd 3330 01be bae5 e3bd 72f8 a83d
00000250: ed3d 133d fee9 afbc c6cd 0a3c 46ac debc
00000260: 0efa c93a c7c5 703b 5f71 68bd 2411 79bd
00000270: 4bd3 99bd d767 4bbd eef3 81bd 45f0 b5bd
00000280: 3ef1 52bd 6833 18bd bb0c 5bbc 3713 f43c
00000290: 84db 773c 8c43 0f3d 5f34 c83c e03c 4d3d
000002a0: bac5 da3b 462f 623d c7b8 4a3d d456 de3d
000002b0: 25dd 123e 5407 0b3e 9ef7 0a3e f3cc b63c
000002c0: aec2 f1bc 532f 2f3c 3412 983a 62f9 06bd
000002d0: 9294 7fbd 8d17 c7bd 8346 cd3d 41b5 893d
000002e0: d397 c53d 8959 8c3d a288 d13d 44cc af3d
000002f0: 31b5 b53d 434d 8cbd 231e e0bd feab dabd
00000300: 2657 02be 6d65 2ebe 48ce 4dbe 1989 c0bd
00000310: 9f40 2ebe 0ad2 7ebd 6fbc 7d3c ce83 483d
00000320: 71a2 833c b4be 19bc 01e1 973c 16fc eebd
00000330: 9a57 d9bd d1bf 48bd a72b 22bc 8678 85bc
00000340: 6ad6 89bd ab21 6dbd 5997 aa3d d570 0d3e
00000350: c65b 183e 6ca3 1a3e 58d9 ed3d 85d7 213e
00000360: 300d 363e 3f5d 8d3c 299e b9bc d1b2 4bbd
00000370: be83 9cbd 788a b3bd 089a 57bd 201e dbbc
00000380: 4a87 febc 9e0a ccbc 33ab 2dbc 6e37 45bd
00000390: f729 b9bc a4e5 a4bd ce68 cabd 9f46 9c3d
000003a0: 2b8b a43d 120c e23d 3565 bd3d fc50 4c3d
000003b0: 84ff 993d d67b 363d 6c46 8fbd 664a 73bd
000003c0: dbb8 96bd e5b2 b4bd 913c b7bd fb0d 90bd
000003d0: 9498 a7bd f7eb 35bd b18e c3bd fdbd 9ebd
000003e0: c40f 56bd d221 d0bc 48ad 38bd d7f2 bcbd
000003f0: 893f f4bc 6ebe 8ebd d6dc 77bd 458d 6ebc
0.09681357 0.14112253 0.14594202 0.0968837 0.13394338 0.07685608 0.0706301 -0.011882637
0.050680008 0.06995523 0.023042398 -0.009709234 0.0072650127 0.06731388 0.05994287 0.078633435
0.0372626 0.07533754 0.12573953 0.07446484 0.052849516 0.01166759 0.07956439 0.13910566
0.13401462 0.07828458 0.07653567 0.0655968 -0.122944586 -0.1407281 -0.101061165 -0.03052268
-0.07485056 -0.108821265 -0.08511291 0.11534734 0.074955784 0.07934162 0.04546492 0.0762058
0.02843864 0.012126811 -0.03301079 -0.05614962 -0.10271929 -0.08239252 -0.12485821 -0.11810919
-0.1342618 -0.032222144 -0.050579812 -0.036084186 -0.06733447 -0.043974258 -0.072837904 -0.08295838
-0.0549644 -0.049586184 -0.06347916 -0.094562195 -0.06768308 -0.05003194 -0.087975845 -0.1899538
-0.23419394 -0.27904266 -0.28700158 -0.29979038 -0.21138057 -0.17392714 -0.04606354 -0.048899453
-0.0757842 -0.057130996 -0.05804922 -0.07224079 -0.10413311 0.12120224 0.13411613 0.10050257
0.09234525 0.07478285 0.044435717 0.010460366 -0.092417866 -0.092118494 -0.13203813 -0.12876084
-0.11228024 -0.10466848 -0.11372648 -0.13225111 -0.03741744 0.036570404 0.047511254 0.027267177
-0.0054313364 0.05366022 0.033265587 -0.0033297765 0.0024422863 0.03318943 -0.01132314 0.009831731
0.021601848 -0.013467182 0.00035747665 0.03572108 0.015608022 -0.022845952 0.053821217 0.06540255
0.044129144 0.06954064 0.09014616 0.080160275 0.047953624 0.02245268 0.02844129 -0.03443273
-0.026439765 -0.020204365 0.008777299 -0.034732323 -0.030743552 0.017841425 0.06521547 0.091810435
0.05634555 0.024046855 0.04084075 0.041247837 0.05216456 0.005243199 -0.033608954 -0.02788899
-0.07073287 -0.106284894 -0.13512294 -0.1575664 -0.0070915516 -0.005741896 -0.08357144 -0.07067658
-0.09425361 -0.12616043 -0.11127801 0.08250512 0.03594773 -0.02147388 0.008471912 -0.027181756
0.0015409605 0.0036738978 -0.056748744 -0.060807362 -0.07511004 -0.049659576 -0.06345354 -0.088837184
-0.051499598 -0.0371584 -0.013369734 0.029794319 0.01512802 0.034976527 0.024439035 0.050106883
0.006676403 0.055220865 0.049492624 0.10856405 0.14342172 0.13577014 0.13571021 0.022314524
-0.029511776 0.010692435 0.0011602105 -0.032952674 -0.062397547 -0.09721289 0.10023215 0.067240246
0.09648099 0.06853015 0.10231139 0.085838825 0.0887245 -0.06850674 -0.10943248 -0.10677336
-0.12728557 -0.17030878 -0.20098221 -0.09401149 -0.17016838 -0.062212028 0.015486821 0.048953824
0.016068669 -0.009383846 0.018539907 -0.11669175 -0.10612412 -0.049011055 -0.009898103 -0.016292822
-0.06730349 -0.057893436 0.083296485 0.13812573 0.14878759 0.15101403 0.11613721 0.1580487
0.17778468 0.017256377 -0.022658424 -0.04973108 -0.07642315 -0.08766645 -0.05263713 -0.026747763
-0.03107037 -0.024907406 -0.010599899 -0.048148565 -0.022603018 -0.08051613 -0.09883271 0.076306574
0.08034357 0.110374585 0.09247819 0.04988192 0.07519439 0.044551693 -0.06995854 -0.059397124
-0.07359477 -0.08823184 -0.08947099 -0.070339166 -0.08183399 -0.044414487 -0.095487006 -0.07751081
-0.05226113 -0.025406752 -0.04508713 -0.092260055 -0.029815452 -0.06969915 -0.06051334 -0.0145600485

0.features.4.bias f4 [64]
00000000: 89e3 123d a4ca 653d 26e9 a83c db92 80bb
00000010: 5c98 97bd 7b0a 043c 81c6 583d 5193 0bbd
00000020: 9d4c 27bd febf a8bd b4b8 2e3d 917a d73d
00000030: 8e62 0dbd 39b9 90bd 55bc 78bd 7eeb 973c
00000040: ac42 c03d 7817 803c 3d66 083d 440e 0d3d
00000050: ba99 a23b 055c 11bd 4349 0cbc 2e57 903d
00000060: 9fb4 a03c 9726 42bd b6c2 503d 4143 a8bd
00000070: e08f 413c 2f8e 20bd 3b76 673c 1de2 52bd
00000080: 48e1 ddbc aef2 d23c 50e7 6fbc dbc3 89bd
00000090: 1f44 2bbd 388d 8dbd f9d9 a93d c855 94ba
000000a0: ef82 493d 4399 713c 9a47 a63d 80a0 88bc
000000b0: 2c9a 44bc 1d4a 2d3d cbe9 d43c ce41 d33d
000000c0: 4da2 73bd 2ce9 3a3d 9bf8 3fbc c855 bc3d
000000d0: 73f9 7a3c f01d 16bc c017 4dbd 667e abbc
000000e0: e958 343c a1e2 26bd 99fd 193c 9c5d 2d3c
000000f0: 5b38 ac3c d534 063d d111 933b 90a5 4c3c
0.035861526 0.056101456 0.020618986 -0.0039237565 -0.07402107 0.008059139 0.052923683 -0.03407604
-0.04084455 -0.082397446 0.042656615 0.105214246 -0.034517817 -0.070665784 -0.060726482 0.018544909
0.09387717 0.01563619 0.033300627 0.034437433 0.0049621733 -0.035488147 -0.008562389 0.07047878
0.019617377 -0.047400083 0.05096694 -0.08215953 0.011814088 -0.039198097 0.014127309 -0.05148517
-0.027084962 0.025750484 -0.014642552 -0.067268096 -0.041813012 -0.06911701 0.08293528 -0.0011317069
0.049197134 0.014746013 0.08119126 -0.016678095 -0.011999648 0.042307008 0.025990387 0.103152856
-0.059480954 0.045632526 -0.011716987 0.09196049 0.015318262 -0.009162411 -0.050071478 -0.020934295
0.011007526 -0.040743474 0.009398841 0.0105814 0.021022966 0.03276523 0.004488208 0.012490645

0.features.5.weight f4 [64]
00000000: e7fe bf3f 85e6 ae3f 5e92 a53f e39f b33f
00000010: bba7 a43f e535 bc3f 6509 a73f 2b87 a43f
00000020: 431b af3f 2de2 ad3f c247 ba3f ca1b aa3f
00000030: 9df6 bc3f d6d8 b13f 39ae aa3f 3bca bc3f
00000040: 395c b83f baf8 b63f 4527 b83f 7ce3 a03f
00000050: 105b bf3f 42c2 a63f 085c b73f ad85 ba3f
00000060: f777 a43f 244c ba3f eaf5 bf3f 8154 b53f
00000070: aa21 a23f adee af3f 325a b83f fdc7 ba3f
00000080: 5a16 a83f a418 c03f 560d a43f 390e bd3f
00000090: 7e5e a53f 9a55 a23f c2cd c03f 0197 b83f
000000a0: 0664 ae3f 73fb ae3f 0139 b53f 387f ba3f
000000b0: 6a50 a43f c066 a73f 9731 b03f bc9d bd3f
000000c0: a149 b83f 6857 b23f 0070 ad3f 8b6c af3f
000000d0: 7f07 bc3f 1921 b23f bbb9 9e3f 641c ba3f
000000e0: 8601 bb3f 926e ae3f 9516 bb3f 9767 ae3f
000000f0: 6146 b73f 553e b93f 02ae a53f 2603 bb3f
1.4999665 1.3664099 1.2935293 1.4033169 1.2863687 1.4703947 1.3049742 1.285375
1.3680195 1.3584648 1.4553149 1.328973 1.476276 1.3894298 1.3334419 1.4749216
1.4403144 1.4294655 1.4386984 1.2569423 1.4949665 1.3028033 1.4324961 1.4572045
1.284911 1.4554486 1.4996922 1.4166414 1.2666523 1.3744713 1.4402525 1.4592282
1.3131821 1.500752 1.281657 1.4769965 1.2919462 1.2682374 1.5062792 1.4421083
1.3624275 1.3670486 1.4158021 1.4570074 1.283704 1.3078232 1.3765134 1.4813762
1.439747 1.3932924 1.3549805 1.3705 1.4689788 1.3916351 1.240043 1.4539914
1.460984 1.3627493 1.4616266 1.3625363 1.4318353 1.4472147 1.2943728 1.4610336

0.features.5.bias f4 [64]
00000000: c477 e9bc 31e0 8c3d 6684 a63d 48d7 0c3e
00000010: 61a2 8b3d 75c1 313e b8b9 bb3d f0a5 543d
00000020: f1a2 1b3e 318f 103e c5ac 213e 183a 983d
00000030: 0765 6fbd 6575 d73d 35ee ef3d 4056 84bd
00000040: 1abf fcbc 5e00 60bd d901 4bbd a2be a13d
00000050: 6001 9bbc d2da b63d e150 0bbd 609d 24bd
00000060: 5c06 863d 20ba 1b3e 3b44 eb3a 1a93 8dbd
00000070: 354d c63d 169e f83d 5cb7 0dbd 79eb 283e
00000080: ee74 ed3d fab1 0abd 0f0d e03d 6143 283e
00000090: 5bca ad3d 86a9 ae3d cb92 3d3e 4bca 1d3e
000000a0: bfa9 2f3d 43ec 063e b267 0fbd 4f47 0dbd
000000b0: b1ea 923d 7449 ca3d 5faf cd3d 028a 8cbc
000000c0: 26ac 2fbd 18df 043e 6d59 e43d bd77 e53d
000000d0: 47d3 2c3e d3c3 033e 30fe 553d 907e 37bd
000000e0: 8bad 49bd bd19 053e 1c44 02bd d9ba de3d
000000f0: 78e2 3bbd b065 6d3d 480d ad3d 7acb 273e
-0.028499492 0.068786986 0.08130722 0.13753998 0.06818081 0.17358954 0.091662824 0.051916063
0.15198876 0.14117123 0.15788563 0.074329555 -0.058445957 0.10520438 0.11715356 -0.064617634
-0.030852843 -0.05468785 -0.04956231 0.078976884 -0.018921554 0.089284554 -0.03401268 -0.040189147
0.06544182 0.1520772 0.0017949411 -0.06912823 0.09682695 0.121395275 -0.034598693 0.16496076
0.11594568 -0.033861138 0.10939991 0.16431953 0.08485862 0.08528428 0.18513028 0.154092
0.042886492 0.13176064 -0.035011 -0.034491833 0.0717367 0.09877291 0.10043215 -0.017155651
-0.042888783 0.12975729 0.11149869 0.11204479 0.16877471 0.1286767 0.052244365 -0.044798434
-0.04923777 0.129981 -0.031803235 0.10875482 -0.045870274 0.057958305 0.08449799 0.16386214

0.features.5.running_mean f4 [64]
00000000: 67f3 8c3e ef95 1bbf 49da 403f fc27 45bf
00000010: 95c5 ffbe 75a1 09c0 bcaa e1be 8e63 0940
00000020: e5f3 4bbf 7d83 5ebf e63b 1ec0 3e29 55bf
00000030: 5b66 453e 435d 4cbf 7c11 91bf 04c5 0d3e
00000040: 9c1c e93e bb08 2f3e d02d 043e 0c50 e93f
00000050: fc16 803e efb7 c53f 17dc 643e 3b50 453e
00000060: 028f 633c 702f 28c0 cfe4 c23e 8f6f 25be
00000070: 92cd f73f 038f 5fbf d24a 443e 7564 23c0
00000080: eadd ea3f 704a 773e 4cbe ee3f 2fb0 21c0
00000090: 6aec 8fbd 0a90 f13f 49ad 0ac0 4f29 1dc0
000000a0: 7185 11bf 6f66 3bbf 5353 ab3e 72ce 6e3e
000000b0: f206 313f fb8c 0940 580f 02bf 9763 d43e
000000c0: 57a5 a63d 5032 42bf e2e9 04c0 6594 3cbf
000000d0: d918 12c0 e8d1 2dbf a0e5 843f fab3 df3d
000000e0: 96e6 e73d 613e 50bf b032 7a3e 5670 2ebf
000000f0: 0fa7 d13d aaab bdbe d4ad 5fbf 0f11 21c0
0.2752945 -0.60775656 0.75333077 -0.77014136 -0.4995543 -2.1504796 -0.44075572 2.1467013
-0.7966903 -0.86919385 -2.472406 -0.83266056 0.19277327 -0.79829806 -1.1333461 0.13844687
0.4552964 0.17093174 0.12908101 1.8227553 0.25017536 1.5446757 0.22349583 0.19268887
0.013889076 -2.6278954 0.38065192 -0.16155837 1.935961 -0.87327594 0.19169167 -2.5530064
1.8348973 0.2414949 1.8651824 -2.5263784 -0.07027514 1.8872082 -2.1668265 -2.4556463
-0.5684424 -0.73203176 0.3346201 0.2332094 0.6915122 2.1492298 -0.5080466 0.4148223
0.08137005 -0.7585802 -2.076775 -0.7366393 -2.2827666 -0.67898417 1.0382576 0.10923
0.11323278 -0.8134518 0.24433398 -0.6814016 0.10236942 -0.37045032 -0.87374616 -2.5166662

0.features.5.running_var f4 [64]
00000000: 066f 8e40 a7eb 8d40 efc2 6e40 e31a d540
00000010: fdc2 7b40 a804 9540 ffec 8040 2d87 8d40
00000020: ffb9 f340 ae55 e240 9049 6c40 c743 6240
00000030: 6861 9940 2a4d 9e40 e884 bf40 896e 9d40
00000040: c93f 7440 982b 8240 373f 8240 b1c8 6440
00000050: f139 8e40 ce1d 9140 e8dc 7340 b14d 8940
00000060: 38a3 4740 51ee 8040 43c0 8d40 a0b8 8040
00000070: 8060 8f40 c68f c540 8505 8340 c8f4 7240
00000080: 3f94 aa40 1fa7 9440 ec1a 9040 7098 7e40
00000090: d456 8f40 6698 8940 3cf4 8740 da8c 6740
000000a0: a618 6a40 43eb c840 7c7c 8040 f2bb 8c40
000000b0: ed89 6240 72e5 ac40 6307 6a40 d592 8840
000000c0: bf01 8040 8109 c740 a65f 6640 ea42 b640
000000d0: 4ffc 8340 6725 e040 7bef 3540 79e2 8540
000000e0: 47e8 8140 047f c640 7cc3 8840 2729 b640
000000f0: df42 8740 03bf 7c40 6778 0341 c999 7f40
4.4510527 4.435016 3.7306478 6.659532 3.9337761 4.6568184 4.02893 4.422751
7.6164546 7.072959 3.69199 3.5353868 4.7931404 4.9469194 5.984974 4.919743
3.8163931 4.0678215 4.0702167 3.5747492 4.444573 4.5348883 3.810358 4.290734
3.119337 4.0290914 4.4297194 4.022537 4.48053 6.1738005 4.094424 3.7961903
5.3305964 4.6454005 4.5032864 3.978054 4.479349 4.2998533 4.248564 3.617972
3.6577544 6.2787185 4.015196 4.3979425 3.5396683 5.4030085 3.6567008 4.267924
4.000213 6.21991 3.599588 5.695668 4.1245494 7.0045657 2.8427417 4.1838956
4.059604 6.203005 4.273863 5.6925235 4.226913 3.9491584 8.216895 3.9937613

1.classifier.weight f4 [1, 64]
00000000: 6f42 bdbe 9f08 9dbe bdd2 b43e 2138 a4be
00000010: 4e8d bb3e 288e e43e def9 b53e c65f 783e
00000020: 60e2 a5be e899 b6be 6230 fc3e 2cac b2be
00000030: 5699 b4be 5650 cfbe 14f5 cabe 264b b7be
00000040: e2a7 d5be b00a e5be be46 dcbe 6a63 b33e
00000050: d0e7 b5be c0ac 853e dc2d e1be d80e ccbe
00000060: d5fe ac3e f16b f33e fbd9 b5be 6153 f0be
00000070: 7f9d b73e 5215 c1be 6d13 d6be bbc3 ee3e
00000080: 75ef 973e 4740 babe cab0 a03e bed9 d63e
00000090: e0b5 c43e bc8b b23e ddc7 cf3e 3408 f33e
000000a0: 5292 d3be 61e0 bdbe a0dc dcbe 20c1 c0be
000000b0: 5f48 bd3e d38a 833e f4bc 8abe 63c7 b7be
000000c0: 1599 cbbe 9463 adbe 16f4 d43e 4510 bdbe
000000d0: 94a6 ca3e 9e72 8fbe 54c6 ac3e 4dcf dcbe
000000e0: fa4c c9be 48ac b6be bd1b bdbe dfc8 babe
000000f0: a28a dbbe 466d a7be fd3d 70be 71f7 d43e
-0.36964747 -0.3067064 0.3531703 -0.32074073 0.36631244 0.44639707 0.35542196 0.24255285
-0.32399273 -0.35664296 0.49255663 -0.34896982 -0.35273236 -0.4049098 -0.39640105 -0.3579952
-0.41729647 -0.44734716 -0.43022722 0.35036784 -0.3552842 0.2610836 -0.439803 -0.39855075
0.3378817 0.4754329 -0.35517868 -0.46938613 0.35862347 -0.3771158 -0.41811696 0.46633705
0.2967488 -0.36377165 0.3138488 0.41963 0.3842001 0.34872234 0.4058217 0.47467196
-0.4132257 -0.3708525 -0.43137074 -0.37647343 0.36969277 0.25691852 -0.27097285 -0.35894307
-0.3976523 -0.33865035 0.41592473 -0.36926475 0.39580214 -0.28017133 0.33745062 -0.43126908
-0.3931654 -0.35678315 -0.36935225 -0.36481377 -0.42879206 -0.32700557 -0.23461147 0.41595033
