checkpoints/ecgcnn_superclass.pt (torch, 432865 bytes, 34 tensors)

backbone.features.0.weight f4 [64, 12, 7]
0	0x3e212b39	0.15739144
1	0x3c8f1bde	0.017469343
2	0xbd58a50a	-0.05289177
3	0x3e2f6f68	0.17132342
4	0xbdd2211a	-0.1026022
5	0x3bbc7efa	0.0057524415
6	0xbe55f4a8	-0.2089411
7	0x3e450ede	0.19243953
8	0xbda6cbf0	-0.08144367
9	0xbe438298	-0.19092786
10	0x3e3875cd	0.18013687
11	0xbd01d968	-0.031701475
12	0x3e20122b	0.1563193
13	0xbe31bb0c	-0.17356509
14	0x3d5b11be	0.053483717
15	0xbdccc5c0	-0.09998655
16	0x3c307be3	0.010771724
17	0x3ca42dea	0.020041425
18	0xbd112b3f	-0.035441633
19	0x3daefec7	0.08544689
20	0xbdd1571a	-0.102216914
21	0xbe1d1c1b	-0.15342753
22	0x3df20ea5	0.118191995
23	0x3e22043a	0.15821925
24	0xbe44178e	-0.1914961
25	0x3cf78926	0.030216765
26	0xbda0e017	-0.07855242
27	0x3e094bab	0.13407771
28	0x3d215cb1	0.039395038
29	0xbdc96a19	-0.0983469
30	0x3dfcb991	0.123400815
31	0xbd77c49c	-0.060490236
32	0x3d109d8f	0.03530651
33	0xbcf3767d	-0.029719586
34	0xbdbb6528	-0.091501534
35	0x3deeee30	0.116665244
36	0xbe01b553	-0.12666826
37	0xbc2f7a28	-0.010710277
38	0x3d56cdee	0.052442484
39	0xbd4888fb	-0.04895876
40	0x3dca7a30	0.09886587
41	0xbe27b67c	-0.16378206
42	0xbbf91bb7	-0.007602181
43	0x3e459fe2	0.19299272
44	0x3dfc26aa	0.12312062
45	0xbdf1e370	-0.118109584
46	0xbca4de6e	-0.020125594
47	0xbddf47cb	-0.10902365
48	0xbd4b591e	-0.049645536
49	0x3ea1a782	0.3157311
50	0x3e60d7cd	0.21957321
51	0x3d808e6d	0.062771656
52	0xbe011fd6	-0.126098
53	0xbd070a96	-0.03296908
54	0xbdd99166	-0.10623436
55	0xbea19c33	-0.31564483
56	0x3e05bb45	0.13059719
57	0x3cdddb22	0.02708203
58	0x3d47d9c4	0.04879166
59	0xbd818031	-0.06323279
60	0xbb3e6525	-0.0029051986
61	0xbb8823fc	-0.0041546803
62	0xbd587ef8	-0.05285546
63	0x3de56c9c	0.11202356
64	0xbdb2989d	-0.08720515
65	0xbe394d1f	-0.18095826
66	0x3d963fce	0.073363885
67	0xbd799abf	-0.060938593
68	0x3e1b3169	0.15155567
69	0x3d202b7d	0.039103974
70	0x3eb8a96e	0.36066765
71	0xbd1a9d95	-0.03774794
72	0x3d327c6d	0.043575693
73	0xbc0cd793	-0.008596319
74	0xbe01c109	-0.12671293
75	0xbda248a3	-0.079240106
76	0xbe60f9f1	-0.21970345
77	0x3eafec9c	0.34360206
78	0x3dc0c2dc	0.094121665
79	0x3e0c414a	0.13696781
80	0x3d564262	0.0523094
81	0xbe2058cf	-0.15658878
82	0xbe1b82ad	-0.15186568
83	0xbede386a	-0.43402416
84	0x3e55e84a	0.20889392
85	0xb963b158	-0.00021714473
86	0x3cf48aa5	0.029851267
87	0x3d43ca54	0.047800377
88	0x3e17c41c	0.14820904
89	0x3d9cb9b6	0.07652609
90	0x3e019cc9	0.12657465
91	0xbd1f4727	-0.038886216
92	0x3d3d89e4	0.04627408
93	0x3da99fe5	0.082824506
94	0xbda1dade	-0.07903074
95	0x3d8cf6ee	0.068830356
96	0x3e148c55	0.14506657
97	0x3d93dd40	0.072199345
98	0xbe34b9ff	-0.17649077
99	0xbe09ea71	-0.13468339
100	0xbd0b4219	-0.033998583
101	0xbd4cde01	-0.050016407
102	0xbd2630a1	-0.04057372
103	0xbd940582	-0.07227613
104	0x3c8cd542	0.017191533
105	0xbe1c9072	-0.15289477
106	0xbdb9084d	-0.090347864
107	0xbd390c49	-0.04517773
108	0xbe2e21dd	-0.17005105
109	0xbe9493cc	-0.2901901
110	0x3d617c30	0.055050075
111	0xbe09b9e2	-0.13449815
112	0x3e44d891	0.19223239
113	0xbd8378c0	-0.064195156
114	0xbdcaf87f	-0.09910678
115	0x3d9a0290	0.0752002
116	0x3e0100d7	0.12597977
117	0xbd985856	-0.07438724
118	0xbc17c01d	-0.009262112
119	0xbe1f3655	-0.1554807
120	0xbccb64aa	-0.024828274
121	0xbc9d494a	-0.019199986
122	0xbd55af2c	-0.05216901
123	0xbce5f1cb	-0.028069397
124	0xbd3a6d3f	-0.04551434
125	0xbb0a9d15	-0.0021150757
126	0x3d8ab1fb	0.06772228
127	0xbdb5ebe8	-0.08882886
128	0x3e4ad9a5	0.19809587
129	0x3dcfebec	0.101524204
130	0x3dc0a2d8	0.0940606
131	0xbcf1a3e8	-0.029497102
132	0xbef5c249	-0.4799979
133	0x3edc95b2	0.43082958
134	0xbc317770	-0.010831699
135	0xbbc0dbad	-0.0058855624
136	0xbd9067cf	-0.0705105
137	0xbe24fe2d	-0.16112585
138	0x3cbbc096	0.02291898
139	0xbe36a2f3	-0.17835598
140	0x3e59fdac	0.21288174
141	0xbe7382fb	-0.23780434
142	0x3ced86e3	0.028994983
143	0xbd80e499	-0.062936015
144	0xbd82216e	-0.063540325
145	0x3d254be6	0.040355586
146	0x3dcca8ea	0.09993155
147	0x3ec4fc8d	0.3847393
148	0x3d8ba217	0.068180256
149	0xbd999251	-0.07498611
150	0x3d91b215	0.071140446
151	0xbd66e033	-0.056366157
152	0x3c01fb6a	0.007933477
153	0x3cd36c1b	0.025808385
154	0x3e4bc0af	0.19897722
155	0x3d77cc36	0.060497485
156	0x3e95930a	0.29213744
157	0x3e56e193	0.20984487
158	0x3d98c6ac	0.07459769
159	0xbdfb2089	-0.12262065
160	0x3df552d4	0.11978689
161	0x3d9653ab	0.07340177
162	0x3de8d404	0.11368564
163	0x3d42a104	0.047516838
164	0x3dfc6cab	0.12325414
165	0x3c0f084c	0.0087300055
166	0xbda07447	-0.07834678
167	0x3e530f0d	0.2061121
168	0xbdfd39c8	-0.123645365
169	0xbe187cfd	-0.14891429
170	0x3e29885d	0.16555925
171	0x3e08e10b	0.13367097
172	0xbdfa3927	-0.12217932
173	0xbde208df	-0.11036848
174	0x3d47e1ad	0.048799206
175	0x3d74af42	0.05973745
176	0xbe80d264	-0.25160515
177	0x3da7dbfd	0.08196256
178	0x3e821d64	0.25413048
179	0xbd284ca0	-0.0410887
180	0xbde2bd78	-0.110712945
181	0x3de222dc	0.11041805
182	0x3e4c2abe	0.1993818
183	0xbe05a084	-0.13049513
184	0xbd91670e	-0.07099734
185	0x3dc710f0	0.097200274
186	0x3e5801ea	0.2109448
187	0xbdb385e9	-0.08765776
188	0xbd307392	-0.043078966
189	0x3c9076cd	0.017634774
190	0x3e196845	0.14981182
191	0xbe34d19c	-0.17658085
192	0xbdeed2cc	-0.116613
193	0x3e12fd4e	0.1435444
194	0x3df716da	0.120649055
195	0xbdf81663	-0.12113645
196	0xbe496114	-0.19665939
197	0x3c17b191	0.009258644
198	0x3e682f7d	0.22674365
199	0x3da34216	0.07971589
200	0xbea12580	-0.31473923
201	0xbd421c16	-0.047390066
202	0x3e195eea	0.14977613
203	0x3e448b6a	0.19193807
204	0xbe1186a5	-0.14211519
205	0xbdd93fc7	-0.10607868
206	0x3d5dea61	0.0541786
207	0x3d072391	0.032992903
208	0xbe1310d6	-0.14361891
209	0x3d6d5dfd	0.057950962
210	0xbc91449d	-0.017732913
211	0x3d5769dc	0.05259119
212	0xbe07144c	-0.13191336
213	0xbda9d44c	-0.082924455
214	0x3d564535	0.052312095
215	0x3e6fcd8a	0.2341825
216	0xbc6e7d16	-0.01455619
217	0x3d0a80c4	0.033814207
218	0x3e0179d2	0.12644127
219	0xbe34dddd	-0.17662759
220	0xbe6bebe4	-0.23039204
221	0x3e21e201	0.1580887
222	0x3e7fc968	0.24979174
223	0xbe1917ca	-0.14950481
224	0x3ce36871	0.027759762
225	0x3d811eb9	0.06304688
226	0xbde2ddd1	-0.11077464
227	0xbd99895f	-0.074969046
228	0x3c898164	0.016785331
229	0x3e1d6d91	0.15373828
230	0xbdba85e0	-0.09107566
231	0x3e214e9e	0.15752646
232	0x3c30b0e9	0.010784366
233	0x3cac6f5b	0.021049192
234	0x3d4ea8d5	0.05045398
235	0x3d7aee3d	0.061262358
236	0x3d7dfeaf	0.062010463
237	0xbccd870d	-0.025088811
238	0xbe272a34	-0.16324693
239	0xbe455803	-0.19271855
240	0x3dc22c90	0.09481156
241	0xbd1edab0	-0.038782775
242	0xbdea9379	-0.114539094
243	0xbdd71d36	-0.105036184
244	0x3dfb2fc3	0.12264969
245	0xbe254a6c	-0.16141671
246	0xbe2ef97f	-0.17087363
247	0x3e3be1ee	0.18347904
248	0x3defc86b	0.117081486
249	0x3c134dd8	0.008990727
250	0xbe252dad	-0.16130705
251	0x3c1670ea	0.009182194
252	0xbdcaf936	-0.099108145
253	0xbe12a3cb	-0.14320295
254	0x39f0b9a8	0.00045914692
255	0x3c8e7117	0.01738791

backbone.features.0.bias f4 [64]
0	0xbe893ef3	-0.2680584
1	0x3b9762d6	0.0046199365
2	0xbe3f1591	-0.1866057
3	0x3e13a7c6	0.14419469
4	0x3da8f06b	0.08248981
5	0x3e56b0e8	0.20965922
6	0x3debf5d4	0.11521497
7	0xbe4ede8f	-0.20202087
8	0xbd104350	-0.035220444
9	0x3e0b239a	0.135878
10	0x3d264e0e	0.040601783
11	0xbd32f9c6	-0.043695234
12	0xbd805544	-0.06266263
13	0x3e145949	0.14487185
14	0x3d96ee3b	0.073696576
15	0x3d41a3e8	0.047275454
16	0x3afcdbc1	0.0019291566
17	0xbe863ee6	-0.26219863
18	0x3d91c09a	0.07116814
19	0x3e4fcde4	0.20293385
20	0xbdeb93a3	-0.11502769
21	0xbc2dc236	-0.0106053855
22	0x3e0e68b7	0.13907133
23	0xbd1a0e2c	-0.03761117
24	0x3d59c82f	0.053169426
25	0x3d734a22	0.05939687
26	0xbd3d33f4	-0.046192124
27	0xbe3b4a3a	-0.18290034
28	0x3c9e40f0	0.019318074
29	0x3ddd81e1	0.10815788
30	0x3cdf9cda	0.027296472
31	0x3dba7132	0.091036215
32	0xbd8585e8	-0.06519681
33	0xbb64269a	-0.0034813047
34	0xbcaf2460	-0.02137965
35	0xbe4114fa	-0.18855658
36	0x3e835c61	0.25656417
37	0x3dd7ae70	0.10531318
38	0x3e648e46	0.22319898
39	0xbcdd07fd	-0.026981348
40	0xbc412b9f	-0.011790185
41	0xbe415f76	-0.18884072
42	0xbd8ec658	-0.06971425
43	0xbcb875bc	-0.022517078
44	0x3e154c28	0.14579833
45	0xbe208c92	-0.15678623
46	0x3d87553b	0.06608053
47	0xbd4c5f24	-0.04989542
48	0xbdb971d0	-0.09054911
49	0xbdc088aa	-0.094010666
50	0xbde449df	-0.11146902
51	0xbe3a4f99	-0.18194427
52	0xbe2e3c30	-0.17015147
53	0xbd86f507	-0.06589704
54	0xbd4bae2a	-0.049726643
55	0x3e08c110	0.13354897
56	0x3d819105	0.063264884
57	0xbe5969e1	-0.21231796
58	0x3db96edb	0.09054347
59	0xbe7bbf9e	-0.24584815
60	0xbd5875eb	-0.05284683
61	0x3d26f333	0.040759277
62	0xbdab8853	-0.08375611
63	0xbd90627d	-0.07050035

backbone.features.1.weight f4 [64]
0	0x3f8c4eb5	1.096152
1	0x3f519286	0.818642
2	0x3f8305b5	1.0236117
3	0x3f6f3ca9	0.93451935
4	0x3f3ca23b	0.73685044
5	0x3f53952e	0.82649505
6	0x3f51cf49	0.8195692
7	0x3f7191d1	0.94363123
8	0x3f81d429	1.0142871
9	0x3f891d59	1.0712081
10	0x3f5f9205	0.87332183
11	0x3f2e466d	0.6807621
12	0x3f810911	1.0080892
13	0x3f260422	0.64850056
14	0x3f62eff2	0.8864738
15	0x3f04e759	0.5191551
16	0x3f22ab90	0.63543034
17	0x3f6a719b	0.915796
18	0x3f5a0378	0.8516154
19	0x3f27f0f6	0.6560205
20	0x3f481043	0.78149813
21	0x3f70677b	0.939079
22	0x3f785e41	0.9701882
23	0x3f70a3fd	0.94000226
24	0x3f66e0f0	0.9018698
25	0x3f835315	1.025973
26	0x3f776be3	0.96649
27	0x3f5faf7a	0.8737713
28	0x3f7af02e	0.98022735
29	0x3f84a56a	1.036298
30	0x3f60274e	0.87559974
31	0x3f5d87d5	0.8653539
32	0x3f4e9f1e	0.80711544
33	0x3f44cfa5	0.7687934
34	0x3f795b64	0.97405076
35	0x3f62bae7	0.8856644
36	0x3f5a98be	0.85389316
37	0x3f2ea14a	0.6821486
38	0x3f5b7e17	0.8573927
39	0x3f5a28b1	0.8521834
40	0x3f623c0c	0.88372874
41	0x3f80eb0b	1.007173
42	0x3f8f8ade	1.1214254
43	0x3f63d80f	0.89001554
44	0x3f62152f	0.88313574
45	0x3f5bf862	0.8592588
46	0x3f790688	0.9727559
47	0x3f5bc7dc	0.85851836
48	0x3f2f425f	0.6846065
49	0x3f823ce5	1.0174834
50	0x3f820d2b	1.0160269
51	0x3f5bfd3f	0.859333
52	0x3f5d6c7d	0.86493665
53	0x3f7dfb80	0.99211884
54	0x3f803a29	1.0017749
55	0x3f653e32	0.8954803
56	0x3f70e622	0.94101155
57	0x3f84fa44	1.0388875
58	0x3f8946b5	1.0724703
59	0x3f30712b	0.6892268
60	0x3f4dc637	0.80380577
61	0x3f58a609	0.8462835
62	0x3f634b6a	0.8878695
63	0x3f6601ec	0.8984668

backbone.features.1.bias f4 [64]
0	0xbe3a878b	-0.18215768
1	0xbfbb6bd0	-1.4642277
2	0xbea9dfb0	-0.33178473
3	0xbdd215f5	-0.10258094
4	0x3edec684	0.4351083
5	0xbee30a26	-0.4434368
6	0xbeefe794	-0.46856368
7	0x3e11949d	0.14216848
8	0xbeae4cf1	-0.34043077
9	0xbe3ef1d0	-0.18646932
10	0xbba9d07e	-0.005182325
11	0x3e03e9ba	0.12882128
12	0xbe7cd772	-0.24691561
13	0xbda19608	-0.07889944
14	0xbf547e6c	-0.83005404
15	0x3e4d7b6b	0.20066611
16	0xbd43be48	-0.04778889
17	0xbd8d39e9	-0.06895811
18	0xbe9011aa	-0.28138477
19	0x3e18e725	0.14931925
20	0xbdbfc2d4	-0.093633324
21	0xbf7e3ed0	-0.99314594
22	0xbc067ad3	-0.0082079945
23	0xbe56f758	-0.20992792
24	0xbe5d0934	-0.21585542
25	0xbe4ded30	-0.20110011
26	0x3d0dff02	0.034667023
27	0xbf24fd4b	-0.64448994
28	0xbe8bd2b1	-0.27309182
29	0xbe6176ce	-0.22017977
30	0xbed6b26b	-0.41932997
31	0xbed5a858	-0.4173
32	0xbd294955	-0.0413297
33	0xbbed73cb	-0.0072464696
34	0xbf1eb5f7	-0.61996406
35	0xbd5bcec0	-0.05366397
36	0xbf6f3d51	-0.93452936
37	0x3f0e81c1	0.5566674
38	0x3e4240a2	0.18969968
39	0xbfa61761	-1.2975885
40	0xbe909ea8	-0.28246045
41	0xbe1b5ece	-0.15172884
42	0x3e1b05bc	0.15138906
43	0x3dfbee35	0.12301294
44	0x3ea77d73	0.32712898
45	0xbf2e2730	-0.68028545
46	0xbeea24b3	-0.45731124
47	0xbf9257b0	-1.143301
48	0xbe555e70	-0.20836806
49	0xbf5491a2	-0.8303472
50	0xbed803d8	-0.42190433
51	0xbf0fd250	-0.56180286
52	0x3e229c48	0.15879929
53	0xbe97cc25	-0.29647937
54	0xbf0db914	-0.5536053
55	0xbe96292e	-0.29328293
56	0x3dba06bc	0.09083316
57	0xbe00621f	-0.1253743
58	0xbec46a88	-0.38362527
59	0x3d3a969d	0.045553792
60	0xbdfbbd62	-0.12291981
61	0xbfce0448	-1.6095057
62	0xbf013972	-0.5047828
63	0xbf1722bb	-0.5903737

backbone.features.1.running_mean f4 [64]
0	0xbe8a2141	-0.26978496
1	0x3c323ef0	0.010879263
2	0xbe3c58aa	-0.18393198
3	0x3e139ef3	0.14416103
4	0x3da73850	0.08165038
5	0x3e524cdc	0.20537132
6	0x3de868bf	0.11348104
7	0xbe50f5ff	-0.2040634
8	0xbd1f2df0	-0.03886217
9	0x3e0a7000	0.13519287
10	0x3d0e7dff	0.034788128
11	0xbd21cf07	-0.039504077
12	0xbd857f6e	-0.06518446
13	0x3e10ff14	0.14159805
14	0x3d967460	0.073464155
15	0x3d4154a2	0.047199853
16	0x38a1c608	7.7139644e-05
17	0xbe8622b4	-0.2619835
18	0x3da38892	0.07985033
19	0x3e4fec1a	0.2030491
20	0xbde7ed18	-0.11324519
21	0xbc4ec9c5	-0.012621348
22	0x3e0f4709	0.13991942
23	0xbd1e3536	-0.038624965
24	0x3d4f9c95	0.050686438
25	0x3d708676	0.058721982
26	0xbd436acc	-0.04770927
27	0xbe3dd890	-0.18539643
28	0x3c9af1b7	0.018914087
29	0x3ddd7661	0.108135946
30	0x3ccc7557	0.024958296
31	0x3dbbab9a	0.0916359
32	0xbd8a0308	-0.067388594
33	0xbb5e1f63	-0.003389322
34	0xbcb34422	-0.021883074
35	0xbe418a38	-0.18900383
36	0x3e83d4a2	0.25748163
37	0x3dcc0b49	0.0996309
38	0x3e639195	0.22223504
39	0xbcf1f9be	-0.029538032
40	0xbc394912	-0.011308925
41	0xbe4512fd	-0.19245525
42	0xbd912f1c	-0.070890635
43	0xbcac5a86	-0.021039259
44	0x3e0e4e28	0.13897002
45	0xbe1e3627	-0.15450345
46	0x3d8a7689	0.0676089
47	0xbd455881	-0.048180107
48	0xbdb95b13	-0.09050574
49	0xbdc54e2c	-0.09634051
50	0xbde501ee	-0.11182009
51	0xbe3c6c60	-0.18400717
52	0xbe368010	-0.1782229
53	0xbd8b022e	-0.06787525
54	0xbd4e5263	-0.05037154
55	0x3e0a6b00	0.1351738
56	0x3d77ca96	0.060495935
57	0xbe599b99	-0.21250762
58	0x3dbc99aa	0.092089966
59	0xbe80779d	-0.25091258
60	0xbd48b576	-0.04900118
61	0x3d2b71e3	0.041856658
62	0xbda8709e	-0.08224605
63	0xbd8d4f65	-0.06899909

backbone.features.1.running_var f4 [64]
0	0x3fe27027	1.7690476
1	0x409cf3d7	4.9047656
2	0x3f9a28e7	1.2043732
3	0x3fff7ad9	1.9959365
4	0x3fe2ef31	1.7729245
5	0x41160492	9.376116
6	0x4063fa7f	3.562164
7	0x3ff90060	1.945324
8	0x40d48bbc	6.6420574
9	0x40355c9d	2.8337777
10	0x40d8d7e4	6.776354
11	0x401e2f92	2.4716535
12	0x40605408	3.5051289
13	0x402022a7	2.502115
14	0x408ed1ba	4.4631014
15	0x4091b841	4.553742
16	0x40a9af81	5.302674
17	0x406e2b94	3.7214098
18	0x413016ee	11.005598
19	0x4049dccb	3.1541011
20	0x4048ed86	3.1394973
21	0x407ad260	3.9190903
22	0x40092532	2.1428952
23	0x40939fe1	4.6132665
24	0x400830de	2.1279826
25	0x40072992	2.1119123
26	0x40208196	2.5079093
27	0x40c9e923	6.309709
28	0x40451ec2	3.0800023
29	0x3f252bd5	0.6452001
30	0x4099c8d9	4.8057675
31	0x40e05a36	7.011012
32	0x4103d83a	8.24029
33	0x403e3824	2.9721766
34	0x4055db27	3.341501
35	0x4082c7d8	4.086895
36	0x3fb56be1	1.4173547
37	0x40f20140	7.5626526
38	0x3faafd5f	1.3358573
39	0x401b1a22	2.42347
40	0x4022e838	2.5454235
41	0x40f0bd08	7.523075
42	0x4073c2e0	3.8087692
43	0x409b5a9a	4.8548098
44	0x408aeaee	4.341178
45	0x404c8323	3.195504
46	0x4005ee46	2.092668
47	0x408a9af7	4.3314166
48	0x401b8364	2.4298944
49	0x41088b2a	8.533976
50	0x405109e6	3.2662292
51	0x40953500	4.6627197
52	0x40d986a3	6.797685
53	0x4054ba10	3.3238564
54	0x40bb460e	5.8523016
55	0x40b96d0c	5.7945614
56	0x4040a34a	3.0099664
57	0x40919acc	4.550146
58	0x408255c2	4.0729685
59	0x40e60139	7.1876493
60	0x40b80fec	5.7519436
61	0x40285c5e	2.6306376
62	0x4045c792	3.0903058
63	0x403e2b1d	2.9713814

backbone.features.4.weight f4 [64, 64, 7]
0	0x3de25e4a	0.110531405
1	0x3de1e7d7	0.11030548
2	0xbc4fe0fd	-0.012687919
3	0xbe41ecc4	-0.18937975
4	0xbe071012	-0.13189724
5	0xbd5d1e2e	-0.05398386
6	0x3b9c8cef	0.004777543
7	0x3e019dca	0.12657848
8	0x3e06b5e9	0.1315533
9	0x3df9f0cb	0.12204131
10	0x3d09eeda	0.033675052
11	0xbc02b32c	-0.007977288
12	0x3bc9c215	0.0061571696
13	0x3d31ad2b	0.043378036
14	0xbd6629fe	-0.05619239
15	0xbc955ca2	-0.018232647
16	0x3b8c84a1	0.0042882715
17	0x3c52c01a	0.012863183
18	0x3be30c27	0.006928939
19	0x3d7ab3a5	0.06120648
20	0x3c68bd7b	0.014205332
21	0x3e4e2596	0.20131525
22	0x3e1b5ee6	0.1517292
23	0x3df2c024	0.11853054
24	0x3e17ed91	0.14836718
25	0x3e5d1e8b	0.21593682
26	0x3e517a6a	0.20456854
27	0x3e5da6fc	0.2164573
28	0x3de5918b	0.11209401
29	0x3d98b3d7	0.07456177
30	0x3d0a1e22	0.033720143
31	0x3d248e6a	0.04017488
32	0x3d7ee20d	0.062227298
33	0x3dff59aa	0.12468274
34	0x3e1faa1c	0.15592235
35	0xbd6ff4b0	-0.05858296
36	0xbb673538	-0.0035279524
37	0x3d3e5249	0.046465192
38	0x3d19a32a	0.03750912
39	0x3dbc44bf	0.091928
40	0x3dae9e59	0.08526296
41	0x3db21e20	0.08697152
42	0x3e20ad91	0.1569121
43	0x3e232e61	0.15935661
44	0x3dcb7293	0.09933963
45	0xbcd85a38	-0.026410207
46	0xbe2830b4	-0.16424829
47	0xbe4c6394	-0.19959861
48	0xbe59a3b2	-0.21253851
49	0xbd1cb613	-0.038259577
50	0xbd362013	-0.044464182
51	0x3c3e1b5c	0.011603203
52	0xbd5dea08	-0.054178268
53	0xbd9e210d	-0.07721148
54	0xbcb8be47	-0.022551669
55	0x3cf2f066	0.029655647
56	0xbd54e1a6	-0.051973008
57	0xbd421ca3	-0.04739059
58	0xbd278928	-0.040902287
59	0xbdc4d6d5	-0.096112885
60	0xbdb9af13	-0.09066596
61	0xbda662dc	-0.08124325
62	0xbe2a3c49	-0.1662456
63	0x3c82c278	0.01596187
64	0xbbf06c47	-0.0073371264
65	0xbc4d6092	-0.012535231
66	0xbd5bf805	-0.053703327
67	0xbd93e890	-0.07222092
68	0x3cfb7b94	0.030698575
69	0x3dd2e0a9	0.10296757
70	0xbc3b8af9	-0.011446708
71	0xbcdecfe8	-0.027198747
72	0xbd141f18	-0.036162466
73	0xbd1664ae	-0.03671711
74	0xbdd427b3	-0.103591345
75	0xbe513b57	-0.20432793
76	0xbe875c2a	-0.26437503
77	0x3c417dad	0.011809749
78	0x3c356108	0.011070497
79	0x3d5fb358	0.054614395
80	0x3d2b979e	0.04189264
81	0x3cac2fd4	0.0210189
82	0x3d21d0e9	0.039505873
83	0x3c46d93f	0.012136756
84	0xbbbd408e	-0.005775518
85	0xbb97db4c	-0.0046342965
86	0xbcafff87	-0.02148415
87	0xbd4291bb	-0.04750226
88	0xbdabe378	-0.083929956
89	0xbd482387	-0.048862007
90	0xbc2c3d94	-0.010512728
91	0x3d0af7e7	0.033927824
92	0xbcae7ae7	-0.021298839
93	0xbcdd7c65	-0.027036855
94	0xbd00671a	-0.031348325
95	0x3c11bcc9	0.008895108
96	0xbc2cc9e5	-0.010546182
97	0xbc1f1a1d	-0.009710816
98	0xbdf7fa29	-0.12108261
99	0xbdf19355	-0.117956795
100	0xbd622fbf	-0.055221315
101	0xbc19bbe0	-0.009383172
102	0xbd5f2000	-0.054473877
103	0xbd2b68fc	-0.041848168
104	0xbd1ec062	-0.03875769
105	0xbe118e3e	-0.14214417
106	0xbe1db1b4	-0.1539982
107	0xbe188867	-0.14895783
108	0xbe2f3d4e	-0.1711323
109	0xbe21e888	-0.1581136
110	0xbdd03f9e	-0.10168384
111	0xbd5c84fc	-0.05383776
112	0x3c717faf	0.014739915
113	0x3d08391f	0.0332576
114	0xbb4213a2	-0.0029613753
115	0xbd8036f3	-0.06260481
116	0xbdba4d98	-0.09096831
117	0xbd5a65cb	-0.053319734
118	0x3d760847	0.060066488
119	0x3d3a67b4	0.045509055
120	0x3d2886e3	0.041144263
121	0x3c3275ee	0.010892374
122	0xbc77843b	-0.01510721
123	0xbda9337b	-0.08261772
124	0xbd9bcc16	-0.07607286
125	0xbb0193f0	-0.0019772016
126	0xbd3bb658	-0.045828193
127	0x3cd84e44	0.026404507
128	0x3d59ce02	0.05317498
129	0x3cb58b3f	0.022161124
130	0x3d3fcf0a	0.046828307
131	0x3d041c02	0.032253273
132	0x3d5558c5	0.05208661
133	0x3e1ac884	0.15115553
134	0x3e1947e2	0.14968827
135	0x3dce4265	0.100712575
136	0x3cd6c135	0.026215175
137	0xbd032bea	-0.0320243
138	0x3c9640a8	0.018341377
139	0x3da3a487	0.079903655
140	0xbda531b3	-0.0806612
141	0xbd768f16	-0.06019505
142	0xbd13176a	-0.035911
143	0x3cdf643f	0.02726948
144	0x3de2f164	0.11081198
145	0x3e01eec4	0.12688738
146	0x3e3e1667	0.18563233
147	0xbd7a3cc7	-0.061093118
148	0x3d34d62f	0.044149574
149	0x3d73e111	0.059540812
150	0x3d109a2a	0.035303272
151	0x3d53eb21	0.05173791
152	0x3dd55b84	0.10417846
153	0x3e6afb43	0.22947411
154	0xbc0def15	-0.008662959
155	0xbcb2f1a0	-0.021843731
156	0xbd4485c4	-0.04797913
157	0xbd9c6e94	-0.076382786
158	0xbd575cfe	-0.05257892
159	0x3c160c1b	0.00915816
160	0x3db4d7b2	0.08830203
161	0xbca65a16	-0.020306628
162	0xbd78f623	-0.06078161
163	0xbe0779bb	-0.1323003
164	0xbe4038e9	-0.1877171
165	0xbe16234f	-0.14661907
166	0xbdf61062	-0.120148435
167	0xbdbad32f	-0.09122311
168	0xbc569ee8	-0.01309941
169	0xbd6509f3	-0.05591769
170	0xbd6ecd4b	-0.05830125
171	0xbd9c83b2	-0.076423064
172	0xbd52735c	-0.051379547
173	0xbd398a46	-0.045297883
174	0xbc53f89a	-0.012937689
175	0x3dcbb6a8	0.09946948
176	0xbbc40b9c	-0.0059828293
177	0x3ca20aa6	0.019780468
178	0x3cff9658	0.03119962
179	0xbc14c1c4	-0.0090794
180	0xbdd8c583	-0.10584547
181	0xbe2bc7a8	-0.16775382
182	0x3ea2a917	0.3176963
183	0x3e51feb5	0.2050732
184	0x3dbd01dc	0.0922887
185	0x3d4e57fd	0.05037688
186	0x3da5a52e	0.08088146
187	0x3e11d857	0.14242683
188	0x3e74e4ba	0.23915377
189	0xbd7744fe	-0.06036853
190	0xbd6c2a42	-0.057657488
191	0xbd41a729	-0.047278557
192	0xbd9223dc	-0.07135746
193	0xbe05f1db	-0.13080542
194	0xbe0e9e40	-0.13927555
195	0xbdc180e4	-0.09448412
196	0x3e19539a	0.14973298
197	0x3d6b0e89	0.05738691
198	0xbd4ed360	-0.05049455
199	0xbe0a102e	-0.13482735
200	0xbde0b568	-0.109721005
201	0xbd851a22	-0.06499125
202	0xbcd6271b	-0.026141694
203	0x3d20b8df	0.039238807
204	0x3d50ee8a	0.05100874
205	0xbc9d5f0f	-0.019210367
206	0xbda48448	-0.08033043
207	0xbde14230	-0.109989524
208	0xbd8bd8bc	-0.06828448
209	0xbd193728	-0.037406117
210	0xbe44e37c	-0.19227403
211	0xbe06f179	-0.13178052
212	0xbdaa6f73	-0.083220385
213	0xbd490d74	-0.049085096
214	0xbd9277df	-0.0715177
215	0x3b08915a	0.002083859
216	0x3d41a53f	0.04727673
217	0xbcac7fd0	-0.02105704
218	0x3b9581a6	0.0045625744
219	0x3c1ef306	0.009701496
220	0xbc4aa345	-0.012368028
221	0xbd243a54	-0.04009469
222	0xbcbc1080	-0.022957087
223	0xbd0f05b3	-0.034917545
224	0xbddbb418	-0.107277095
225	0xbd6023b5	-0.054721553
226	0xbc894508	-0.01675655
227	0xbb9c1113	-0.0047627776
228	0x3cbf3fb4	0.023345806
229	0xbc13e69a	-0.009027148
230	0xbc583866	-0.01319704
231	0x3d0e4955	0.034737904
232	0xbd8c2723	-0.06843402
233	0xbdc37473	-0.09543695
234	0xbd8e4aae	-0.06947838
235	0xbda7ddd5	-0.08196608
236	0xbe01037a	-0.12598982
237	0xbe081953	-0.1329091
238	0x3cf98329	0.03045805
239	0x3c3f97de	0.011693923
240	0xbc4e4345	-0.0125892805
241	0xbc8d9be2	-0.017286245
242	0x3be6f6d3	0.0070484667
243	0x3ca3a9f9	0.01997851
244	0x3d99a814	0.075027615
245	0xbe3d3376	-0.18476662
246	0xbe636566	-0.22206649
247	0xbe5770e9	-0.21039166
248	0xbe3dfdc7	-0.1855384
249	0xbdecd6ae	-0.115643844
250	0xbd7a3da1	-0.06109393
251	0xbd9227c1	-0.07136489
252	0x3e2a8b03	0.16654591
253	0x3ddcfd5d	0.10790513
254	0x3e01abab	0.12663142
255	0x3e40f0ea	0.18841901

backbone.features.4.bias f4 [64]
0	0xbcf4d28e	-0.029885557
1	0x3dda1b93	0.106497906
2	0xbcdbd847	-0.026836528
3	0xbe1aae5d	-0.15105577
4	0xbd4fbb9c	-0.050716028
5	0x3ca5bf1e	0.020232733
6	0x3e21bf54	0.15795642
7	0xbc375a5e	-0.011190979
8	0x3c820614	0.015872039
9	0x3d837aae	0.06419884
10	0xbc956b75	-0.018239716
11	0xbc441f33	-0.011970329
12	0xbd8ec701	-0.06971551
13	0xbdf053ba	-0.117347196
14	0x3b58bd72	0.0033071903
15	0xbc11d5d8	-0.008901082
16	0x3e25d1db	0.16193335
17	0xbd391d1b	-0.045193773
18	0x3d854e00	0.06509018
19	0xbe209264	-0.15680844
20	0x3d48cae9	0.049021635
21	0x3c57de72	0.013175594
22	0xbd90462d	-0.07044635
23	0x3d50e814	0.051002577
24	0x3ddb810c	0.10717973
25	0x3d8bb7f1	0.068221934
26	0xbd765744	-0.060141817
27	0xbe55b42b	-0.2086951
28	0xbc535c63	-0.012900445
29	0x3d93e406	0.072212264
30	0x3d719a65	0.058985133
31	0xbca5229e	-0.020158108
32	0xbe283c74	-0.16429311
33	0x3ddaf658	0.106915176
34	0x3d84102e	0.064483985
35	0xbd8ba3e8	-0.06818372
36	0xbdb29bd6	-0.087211296
37	0x3b9aca8a	0.0047238516
38	0xbce51673	-0.027964806
39	0xbd8b3d3b	-0.06798788
40	0x3c93c993	0.018040454
41	0xbdff78be	-0.124742016
42	0x3cc0ebb1	0.023549886
43	0x3d626275	0.055269677
44	0xbd0539c2	-0.032525785
45	0x3d7bb60e	0.061452918
46	0xbb4c4e3e	-0.0031174566
47	0x3d4dbed7	0.050230827
48	0x3d6d763b	0.05797408
49	0x3cc3d67f	0.02390599
50	0x3dc461fe	0.09589003
51	0x3da0cb85	0.07851318
52	0xbda94415	-0.08264939
53	0x3d92ba09	0.0716439
54	0xbe4c8aa0	-0.19974756
55	0xbc83f983	-0.016110187
56	0xbcbcf458	-0.02306573
57	0xbc229f8e	-0.009925736
58	0x3b3716c6	0.0027937158
59	0x3da33b9f	0.07970356
60	0x3c231aa3	0.009955081
61	0xbd9151f5	-0.0709571
62	0x3d12a1ce	0.03579884
63	0x3bcd7ed5	0.006271223

backbone.features.5.weight f4 [64]
0	0x3fcac01b	1.5839876
1	0x3fdda44f	1.7315768
2	0x400e9f20	2.2284622
3	0x3ffbeca1	1.9681588
4	0x3fdca9bb	1.7239298
5	0x3ff0e4f7	1.8819875
6	0x3fcf9fb9	1.6220618
7	0x3fda896e	1.707319
8	0x3ffeb834	1.9899964
9	0x40020775	2.0317051
10	0x3fe1e542	1.7648089
11	0x4002d75e	2.044395
12	0x3ff033ee	1.8765848
13	0x400538d3	2.0815933
14	0x3ffba9df	1.9661216
15	0x3fff07a9	1.9924213
16	0x3ff884ab	1.9415487
17	0x3fda578c	1.7057967
18	0x4001449d	2.0198128
19	0x4010eff6	2.264646
20	0x3fc647a1	1.549061
21	0x3ff90cf7	1.9457082
22	0x400a53d4	2.1613665
23	0x3fd1106d	1.6333138
24	0x3fed98aa	1.8562214
25	0x3fe4694f	1.7844638
26	0x400b7ffa	2.179686
27	0x3ff48ff5	1.9106432
28	0x3fe0859d	1.7540776
29	0x3fea9beb	1.8328832
30	0x4001dc0a	2.029055
31	0x3fd126fd	1.6340023
32	0x3fdbe2c4	1.7178578
33	0x400ec9ca	2.2310662
34	0x3fe2090b	1.765901
35	0x3ff6dff5	1.9287096
36	0x3feaf103	1.8354801
37	0x3feacb23	1.8343242
38	0x3ff97526	1.9488876
39	0x400ee2e8	2.2325993
40	0x3fddc8db	1.7326921
41	0x3fdfefdd	1.7495075
42	0x3ff30089	1.8984538
43	0x3fd15c71	1.6356336
44	0x3ffeda19	1.9910308
45	0x3febbd8d	1.8417221
46	0x3fd0302b	1.62647
47	0x3fd486c2	1.6603625
48	0x3ffe9371	1.9888746
49	0x3fd88c72	1.691786
50	0x40035cb0	2.0525322
51	0x3ffa18ae	1.9538782
52	0x4001b92b	2.0269268
53	0x3fe2a400	1.7706299
54	0x3fdc7a10	1.722475
55	0x3fcb6503	1.5890201
56	0x3ff710d4	1.930201
57	0x3fde333d	1.7359387
58	0x3ff6ed2b	1.9291128
59	0x4005d1a2	2.09092
60	0x3fe04231	1.75202
61	0x3fd8bbe6	1.6932342
62	0x3fd8f1a4	1.6948743
63	0x40140909	2.3130515

backbone.features.5.bias f4 [64]
0	0xbeb95190	-0.3619504
1	0xbc594b4a	-0.013262579
2	0xbdd18504	-0.10230449
3	0xbe5b44ff	-0.21413039
4	0xbed77205	-0.42079177
5	0x3df1f216	0.11813752
6	0xbe1de7d9	-0.15420474
7	0xbe306b8d	-0.17228527
8	0xbdb2301d	-0.08700583
9	0xbe143ff9	-0.14477529
10	0x3e25cfa0	0.16192484
11	0xbdeb8bbd	-0.11501262
12	0x3e887d08	0.2665789
13	0xbe6156da	-0.22005787
14	0xbe34479d	-0.17605443
15	0xbe1f41ae	-0.15552399
16	0x3e9ba1ed	0.30396977
17	0xbea3d291	-0.31996587
18	0x3da1533c	0.07877204
19	0xbeffdcb1	-0.49973062
20	0x3cbce4ef	0.023058383
21	0x3e074b53	0.13212328
22	0xbeb56ff2	-0.3543697
23	0xbe45d9cc	-0.19321364
24	0xbdcf0ced	-0.10109887
25	0x3dc75566	0.09733085
26	0xbe868abe	-0.26277727
27	0xbdcf1c65	-0.10112838
28	0x3e82d3cf	0.25552222
29	0xbe30c55e	-0.1726279
30	0xbe250844	-0.16116434
31	0xbeeac2a6	-0.4585163
32	0x3d805386	0.06265931
33	0xbe923e31	-0.28563073
34	0x3e2c1137	0.16803442
35	0xbbec67ed	-0.0072145374
36	0x3c3d1c93	0.011542457
37	0xbd373f17	-0.0447379
38	0xbea0b977	-0.31391498
39	0xbe0ba469	-0.13636936
40	0xbdcb1103	-0.09915354
41	0xbd5f2801	-0.05448151
42	0xbad74669	-0.0016424182
43	0xbe4f8c84	-0.20268446
44	0xbe79dd45	-0.24400814
45	0x3e5d6a31	0.2162254
46	0xbe8ce5fe	-0.2751922
47	0xbf0454f3	-0.5169212
48	0xbded9674	-0.11600962
49	0x3d15bd24	0.03655733
50	0x3ddede79	0.10882277
51	0xbe5387b3	-0.20657234
52	0x3d287cc6	0.04113462
53	0x3e5d2194	0.2159484
54	0x3da3d483	0.07999518
55	0xbe976af8	-0.29573798
56	0xbbef5001	-0.0073032384
57	0x3e2b6c05	0.16740425
58	0xbe12fe72	-0.14354876
59	0x3e11a2d6	0.14222273
60	0xbe2e863b	-0.17043392
61	0x3d299346	0.041400217
62	0xbe8a52b4	-0.27016222
63	0xbd3f03c0	-0.046634436

backbone.features.5.running_mean f4 [64]
0	0x3f922916	1.1418788
1	0x3f4e52c3	0.80595034
2	0xbf8e20b0	-1.1103725
3	0xbf647533	-0.8924133
4	0x3d8f02f6	0.06982987
5	0xbec81a1a	-0.39082414
6	0x3fbbb045	1.4663168
7	0x3f32cd23	0.69844264
8	0xbe936c74	-0.2879368
9	0x3f1eb98c	0.6200187
10	0xbfabe43b	-1.3429025
11	0xbc1b0a0e	-0.009462846
12	0xbe955dd4	-0.29173148
13	0x3ee6253f	0.44950292
14	0x3ebe151a	0.37125474
15	0xbe5714ea	-0.21004072
16	0xbcca0ff1	-0.024665805
17	0x3f0cb858	0.54968786
18	0x3e655ee4	0.22399479
19	0xbfc078d6	-1.5036876
20	0x3f4580d3	0.77149695
21	0x3e5b1148	0.21393311
22	0xbd064e04	-0.032789245
23	0x3f66cc0d	0.90155107
24	0xbe9c8b2b	-0.30574927
25	0xbd1ab319	-0.037768457
26	0xbe8a0548	-0.26957154
27	0xbe758d6c	-0.2397973
28	0xbede7d9a	-0.434552
29	0xbe25048b	-0.16115014
30	0x3ec3f368	0.38271642
31	0x3f370852	0.7149707
32	0x3f09b424	0.537905
33	0x3d05918c	0.032609507
34	0xbf4c995a	-0.79921496
35	0xbfcdcd80	-1.6078339
36	0xbef4283e	-0.47686952
37	0x3a4b1908	0.00077475654
38	0x3f1a6cef	0.6032247
39	0xbeb1d758	-0.34734607
40	0xbd5daaa9	-0.054117832
41	0xbe71406f	-0.23559736
42	0x3d8978b1	0.06712473
43	0x3f9610fb	1.1723932
44	0xbf3446f9	-0.70420796
45	0x3e3fc040	0.18725681
46	0x3f789d14	0.9711468
47	0x3f6db8a2	0.9285985
48	0xbf787058	-0.9704642
49	0x3ee9f0b6	0.4569146
50	0xbe10500c	-0.14093035
51	0x3f189115	0.5959638
52	0x3e4fad60	0.20280981
53	0xc026442c	-2.597911
54	0xbff1c5fb	-1.8888544
55	0x3f6d589f	0.9271335
56	0xbf661bc4	-0.89886117
57	0x3e4934fc	0.19649118
58	0x3f68907a	0.90845454
59	0xbf1c136d	-0.6096714
60	0x3f50f478	0.8162303
61	0x3dabe149	0.08392579
62	0x3f210ccf	0.6291017
63	0xbfb32601	-1.3995973

backbone.features.5.running_var f4 [64]
0	0x4039c42f	2.902599
1	0x407e22c9	3.970873
2	0x401a1f7c	2.4081717
3	0x40000639	2.0003798
4	0x403d3982	2.956635
5	0x40260b0e	2.5944247
6	0x401790ca	2.3682122
7	0x405368b9	3.3032668
8	0x4011453b	2.2698505
9	0x401d77c1	2.4604342
10	0x403de4f9	2.9671004
11	0x402d464c	2.7074156
12	0x40594ff6	3.3955054
13	0x402e5591	2.7239726
14	0x404d3df5	3.2069066
15	0x3ff7a231	1.9346372
16	0x405b062a	3.4222512
17	0x400dfb8e	2.2184787
18	0x402ecf80	2.7314148
19	0x401fb4c6	2.4954085
20	0x402599da	2.5875154
21	0x400a8d96	2.1648917
22	0x4056ce47	3.3563402
23	0x401bccd2	2.4343762
24	0x3fe8f4ed	1.8199745
25	0x402aed9f	2.6707532
26	0x4045d4ae	3.091106
27	0x4035d459	2.8410857
28	0x404286c8	3.0394764
29	0x40289656	2.6341758
30	0x4023bfd8	2.5585842
31	0x4068c08d	3.6367524
32	0x400ec8be	2.2310023
33	0x404edb68	3.2321415
34	0x40286389	2.6310751
35	0x400a2363	2.1584098
36	0x4015b113	2.3389328
37	0x40470d7f	3.1101987
38	0x406258b3	3.5366638
39	0x402663b8	2.5998363
40	0x402bca51	2.6842234
41	0x4035cbeb	2.8405712
42	0x402a5729	2.6615698
43	0x403fc160	2.9961777
44	0x402d3679	2.7064497
45	0x4086c6fe	4.211791
46	0x405d810c	3.4610014
47	0x40579888	3.3686848
48	0x40167a95	2.3512318
49	0x402dec4d	2.7175477
50	0x401cb94f	2.4488103
51	0x40411253	3.0167434
52	0x402b214e	2.6739078
53	0x407dd828	3.9663181
54	0x405b8e80	3.4305725
55	0x4034c938	2.8247814
56	0x40942dc8	4.6305885
57	0x40301d4e	2.7517886
58	0x4034c452	2.8244824
59	0x4049a05c	3.1504126
60	0x4042e8c4	3.045457
61	0x407591e5	3.8370297
62	0x404e9097	3.227575
63	0x40411f24	3.0175257

head.weight f4 [4, 64]
0	0xbd313f4b	-0.04327325
1	0xbea761f2	-0.32691914
2	0x3f58db09	0.8470922
3	0xbe8a94bb	-0.27066597
4	0x3f0dd74a	0.5540663
5	0x3f2bcaeb	0.67106503
6	0x3ed1b5e3	0.4095908
7	0x3c09fb82	0.008421781
8	0xbebf246f	-0.37332484
9	0xbf4671a7	-0.7751717
10	0x3f1e8bdf	0.61932176
11	0xbf803eb9	-1.0019141
12	0x3dbdfd78	0.09276861
13	0xbf9035fe	-1.1266477
14	0xbee9a65a	-0.4563473
15	0x3d3a0461	0.045414332
16	0xbf1271ba	-0.5720478
17	0xbf24fda4	-0.64449525
18	0xbf16fc2f	-0.5897855
19	0x3fa8a0a2	1.3174021
20	0xbd8d6e30	-0.06905782
21	0xbd7af0cf	-0.06126481
22	0xbee270a3	-0.4422656
23	0xbe85add6	-0.2610919
24	0x3ebb9e4e	0.36644214
25	0x3ee45023	0.4459239
26	0xbe3fc620	-0.18727922
27	0xbf6f1487	-0.933907
28	0x3efa679b	0.4890717
29	0xbecf3483	-0.4046975
30	0xbf136083	-0.5756914
31	0x3ec394c9	0.38199452
32	0x3e2e27df	0.17007397
33	0xbae88288	-0.0017739097
34	0x3f16ca60	0.5890255
35	0x3ed06b00	0.40706635
36	0x3eee4f96	0.46545094
37	0x3f1a4070	0.60254574
38	0xbc06cebb	-0.008227999
39	0x3f9463a1	1.1592904
40	0xbee31e98	-0.4435928
41	0xbe54e0df	-0.20788907
42	0xbf1f7a45	-0.62295943
43	0xbe72b0ce	-0.23700258
44	0x3f80b802	1.0056155
45	0x3e319b44	0.17344385
46	0xbd9c14f3	-0.07621183
47	0xbe62f057	-0.22161995
48	0xbe32ceb5	-0.17461665
49	0xbe326145	-0.17419918
50	0x3f1aed12	0.6051799
51	0xbf0ca66e	-0.5494145
52	0x3dbc2bff	0.09188079
53	0x3d5fe22a	0.054659046
54	0x3ecc9539	0.39957598
55	0xbe83a95a	-0.25715142
56	0xbe859697	-0.26091453
57	0xbf20b758	-0.6277976
58	0xbf15598e	-0.58339775
59	0xbf5cc12b	-0.8623225
60	0xbf576b9a	-0.8414856
61	0xbe36e8f6	-0.17862305
62	0x3c5d23bf	0.013497292
63	0x3f88c8ca	1.0686276
64	0x3e85e94c	0.26154554
65	0xbf328883	-0.6973955
66	0xbf555317	-0.8332991
67	0xbf2b0ee0	-0.6681957
68	0xbed925d9	-0.42411688
69	0x3e5a1a82	0.21299174
70	0x3f011e34	0.5043671
71	0x3f38be9b	0.7216584
72	0x3e8a7a4c	0.2704643
73	0x3f251b6f	0.64494985
74	0x3f07a243	0.52981967
75	0xbe9ee82b	-0.31036505
76	0x3e9a30d9	0.30115393
77	0x3e0ddf59	0.13854732
78	0xbf858188	-1.0430155
79	0xbcbf2707	-0.02333404
80	0x3f19db54	0.60100293
81	0xbe1cf14b	-0.15326421
82	0x3ee74e82	0.45177084
83	0xbef5bb31	-0.47994378
84	0xbee35a90	-0.4440503
85	0x3ea09733	0.31365356
86	0xbfa3d39d	-1.2798954
87	0x3ea7f3b0	0.32803106
88	0xbda7e041	-0.0819707
89	0x3f0319ab	0.5121104
90	0xbf94d76e	-1.1628244
91	0xbefc079b	-0.49224553
92	0x3f0e0f17	0.55491775
93	0xbdd361b0	-0.10321367
94	0x3e7d0b27	0.24711286
95	0xbe840eaa	-0.25792438
96	0xbee87aa2	-0.4540606
97	0xbfab6d92	-1.3392813
98	0x3f073876	0.5282053
99	0xbf26f303	-0.65214556
100	0xbf36684d	-0.712529
101	0x3e2b4099	0.16723861
102	0x3e346776	0.17617592
103	0x3c28f3be	0.010312019
104	0xbf0b2cbf	-0.5436515
105	0xbf1c60c4	-0.6108515
106	0xbdb805bb	-0.08985468
107	0x3efc631b	0.4929436
108	0x3e0075df	0.12544964
109	0x3f227ceb	0.6347186
110	0x3f1545c7	0.58309597
111	0x3e069f74	0.13146764
112	0xbdec9c7c	-0.115532845
113	0xbf1b8a15	-0.6075757
114	0xbd14c7b3	-0.03632326
115	0x3d0350a9	0.032059345
116	0x3d5a927a	0.053362347
117	0x3f3af701	0.7303315
118	0x3ef19aa9	0.4718831
119	0x3da69598	0.081340015
120	0xbf7c19d3	-0.98476905
121	0xbe6dae0c	-0.23210925
122	0x3f25fd51	0.64839655
123	0x3ef4eecd	0.4783844
124	0x3e3d1612	0.1846545
125	0xbf2c9203	-0.67410296
126	0x3ed2e5e5	0.4119102
127	0x3bf2d081	0.0074101095
128	0xbdff5269	-0.1246689
129	0x3ed9e207	0.42555258
130	0x3cd46633	0.025927639
131	0x3f5d36c8	0.86411715
132	0xbdbb02f4	-0.09131423
133	0x3f02030e	0.5078591
134	0x3de575a3	0.11204078
135	0xbed2d885	-0.41180816
136	0x3f77a8a0	0.96741676
137	0xbf2672ff	-0.6501922
138	0x3d223e58	0.039610237
139	0x3d0559e0	0.032556415
140	0xbe735a51	-0.23764922
141	0xbee9eba3	-0.4568759
142	0xbe0acc4f	-0.135545
143	0x3f852773	1.0402664
144	0xbd9f581d	-0.07780478
145	0xbbc65b58	-0.0060533695
146	0xbe960af1	-0.29305223
147	0xbf0ef3f1	-0.55840975
148	0x3e54bc05	0.20774849
149	0xbf125715	-0.57164127
150	0xbe684a93	-0.22684698
151	0x3ea036ea	0.31291896
152	0x3f6dea89	0.92936
153	0xbf1419f1	-0.57852083
154	0x3e55128c	0.20807856
155	0xbe636bd7	-0.22209106
156	0x3ed696c2	0.41911894
157	0x3f473189	0.7780996
158	0x3f5c711a	0.8611008
159	0xbd8a2e35	-0.067470945
160	0xbf054d48	-0.52071047
161	0xbeb6b352	-0.35683686
162	0xbd092083	-0.03347827
163	0x3effd31d	0.49965754
164	0xbc3c8399	-0.011505985
165	0x3f31bf3f	0.69432443
166	0xbf891739	-1.0710212
167	0xbd047c78	-0.032345265
168	0xbee63309	-0.44960812
169	0xbef81dc8	-0.4846022
170	0xbec1bcfb	-0.37839493
171	0x3e8cfc01	0.27536014
172	0xbf1d2273	-0.6138069
173	0x3c579c02	0.013159754
174	0xbe96cc2a	-0.2945264
175	0xbf0cd797	-0.55016464
176	0x3f8054a2	1.0025828
177	0xbeb21051	-0.34778073
178	0xbf06d73b	-0.52672166
179	0x3f4849d5	0.7823766
180	0xbf35e9bb	-0.7105977
181	0x3e29375a	0.16525021
182	0xbee8aad8	-0.45442843
183	0x3ec24582	0.37943655
184	0x3e6c5bfe	0.23081967
185	0xbe068169	-0.13135304
186	0xbefeceb3	-0.49767074
187	0xbec2fd5a	-0.38083917
188	0xbea2864e	-0.3174309
189	0x3e346d7b	0.17619888
190	0xbf1a0c1d	-0.60174733
191	0xbe9b2901	-0.3030472
192	0x3f3cbcd6	0.7372564
193	0xbe85e7c1	-0.26153377
194	0x3d85eed1	0.06539691
195	0xbd2c582b	-0.04207627
196	0x3f20dc6f	0.62836355
197	0xbe12db84	-0.14341551
198	0x3f1b3d1f	0.6064014
199	0x3ee3a4d0	0.4446168
200	0x3d1ce788	0.038306743
201	0x3d2c06e1	0.041998748
202	0x3e5bbddc	0.21459144
203	0xbe992572	-0.2991138
204	0xbf2144ec	-0.6299579
205	0xbdbfb413	-0.09360518
206	0xbc499741	-0.012304128
207	0x3e10559f	0.14095162
208	0xbeb5339f	-0.35390946
209	0x3f2667c7	0.650021
210	0xbf1c0813	-0.6094982
211	0x3d74bb3f	0.059748884
212	0xbeeec836	-0.46637124
213	0xbf357fe1	-0.7089825
214	0x3dde1a29	0.108448334
215	0x3f03c0bc	0.51465964
216	0x3d0a8efe	0.033827774
217	0x3eb0fc66	0.34567565
218	0x3d8dda32	0.06926383
219	0xbdfcb0fd	-0.12338445
220	0xbe45f70e	-0.19332525
221	0x3ed0dee4	0.40795052
222	0x3dae7aa5	0.08519486
223	0x3f39d122	0.72584736
224	0xbef2b4c1	-0.4740353
225	0xbd8ea544	-0.06965116
226	0xbd28a455	-0.041172344
227	0x3eb69c08	0.35665917
228	0xbeca67ff	-0.39532468
229	0xbe50a201	-0.203743
230	0x3ed220ee	0.41040748
231	0xbe16531e	-0.14680144
232	0xbefe9944	-0.49726307
233	0xbf0600d7	-0.5234503
234	0xbf32c886	-0.69837224
235	0x3ef56cbc	0.4793452
236	0x3e17c45b	0.14820997
237	0xbec09fe8	-0.37622
238	0x3f16d455	0.5891774
239	0x3f28be2d	0.65915185
240	0x3e9937a9	0.29925278
241	0xbeb863d4	-0.36013663
242	0xbf2d5037	-0.67700523
243	0xbe967950	-0.2938943
244	0xbf3b085a	-0.7305962
245	0x3eb648ae	0.35602325
246	0x3f084f36	0.53245866
247	0x3f2471d5	0.64236194
248	0xbd0cc25c	-0.034365043
249	0xbecdb1da	-0.40174752
250	0x3e80f54a	0.2518714
251	0xbe85ecb3	-0.2615715
252	0x3e8c0c1c	0.2735299
253	0xbed42f51	-0.4144235
254	0x3f0b579a	0.54430544
255	0xbe7938bc	-0.24338049

head.bias f4 [4]
0	0x3daabce5	0.0833681
1	0x3dcd8215	0.10034577
2	0x3dc938a6	0.09825258
3	0xbc5e146c	-0.013554674

exp_avg f4 [64, 12, 7]
0	0x3b1edf63	0.0024242036
1	0x3a8bc6ab	0.0010664066
2	0x39d3462d	0.0004029734
3	0x3ac10cd9	0.001472856
4	0x3ac8b3bb	0.0015312353
5	0xba49453e	-0.00076778594
6	0xbb342037	-0.0027485022
7	0x3b689159	0.0035487025
8	0x3b2e1e05	0.0026568186
9	0x3aba983d	0.0014236044
10	0x3ab7c128	0.0014019357
11	0x3ab6ddb2	0.0013951568
12	0xba05fabd	-0.000511091
13	0xbaa266be	-0.0012390239
14	0x3a9843bb	0.0011616865
15	0x3ad02943	0.0015881438
16	0x3a85759c	0.0010182145
17	0xb816ebc4	-3.598236e-05
18	0xb8d60ba8	-0.00010206486
19	0x397b586f	0.0002397017
20	0x3aba27ec	0.0014202571
21	0xbb654dad	-0.0034988925
22	0xbb0f4ab1	-0.0021864588
23	0xba8d7b51	-0.0010794197
24	0xbadc2e7c	-0.0016798521
25	0xbadfe617	-0.0017082122
26	0x3a420f39	0.0007402781
27	0x3b175658	0.0023092236
28	0x3a3642c5	0.00069526985
29	0xb9abf9d7	-0.00032801807
30	0xb9c3011d	-0.00037194128
31	0x3a5ebc43	0.0008496681
32	0x3a706929	0.00091709435
33	0xba17ec83	-0.0005795436
34	0xbb1c816d	-0.0023880855
35	0x3b2fbcba	0.002681537
36	0x3b1e4e8d	0.0024155707
37	0x3ab54b87	0.0013831713
38	0x3a48e9c9	0.0007664231
39	0x3a3d7df1	0.00072285446
40	0xb92c4502	-0.00016428906
41	0x38e3cebe	0.00010862712
42	0xbbc19ca9	-0.005908568
43	0xbba93a46	-0.0051644174
44	0xbb8b509f	-0.004251554
45	0xbb550d57	-0.0032509172
46	0xbb17184c	-0.0023055254
47	0xba8360fc	-0.001002341
48	0xb90f617c	-0.00013673858
49	0xbc1cc833	-0.009569216
50	0xbc0fff34	-0.0087888725
51	0xbbe166c2	-0.0068787048
52	0xbb993f40	-0.0046767294
53	0xbb7545a3	-0.003742554
54	0xbb7df738	-0.003875209
55	0xbb41f739	-0.002959682
56	0xbc2560d4	-0.010093886
57	0xbc2c0af1	-0.0105006555
58	0xbc2423a7	-0.010018266
59	0xbc0b0153	-0.008484202
60	0xbbeb100a	-0.007173543
61	0xbbe0c8ef	-0.0068598907
62	0xbbadea89	-0.0053075
63	0xbba0a134	-0.0049020294
64	0xbbc989af	-0.0061504464
65	0xbbe3bdad	-0.0069501013
66	0xbbc6d08c	-0.006067341
67	0xbb995c60	-0.0046802014
68	0xbba1d6c8	-0.004938934
69	0xbb8abbbd	-0.004233806
70	0x3996bc76	0.00028750644
71	0xb9cdbe91	-0.0003924263
72	0xbad716fb	-0.0016410047
73	0xbb089f60	-0.0020846948
74	0xbabd2c46	-0.001443275
75	0xbae916e3	-0.001778331
76	0xbaf39d14	-0.0018586242
77	0x3a9b962f	0.001187032
78	0x3a83890b	0.0010035349
79	0x399029bb	0.00027496912
80	0xb9e735bf	-0.00044099797
81	0xba622039	-0.00086260174
82	0xbadd1b2e	-0.0016869062
83	0xbafddcea	-0.0019368206
84	0xba6ff694	-0.00091538695
85	0x3aa17e74	0.0012321011
86	0x3b3ede90	0.0029124357
87	0x3a2e08c4	0.00066388794
88	0xbb11d56e	-0.0022252458
89	0xbb22ef8c	-0.002486202
90	0xba98cfb9	-0.0011658586
91	0xba0fcae1	-0.00054852484
92	0x3b1296d0	0.0022367723
93	0x3ba67c5a	0.005080742
94	0x3b1ba508	0.002374949
95	0xbb03f723	-0.0020136319
96	0xbb185cbd	-0.0023248636
97	0xba5fb243	-0.0008533338
98	0x39b4b397	0.0003446608
99	0x3a84a7d2	0.0010120815
100	0x3b0f8928	0.002190182
101	0x3ade511c	0.0016961428
102	0x3929f2a3	0.00016207485
103	0x38dc3385	0.00010500014
104	0x39929db1	0.0002796478
105	0x3a5ddf49	0.0008463753
106	0xbb04faef	-0.002029117
107	0xbb9915f0	-0.0046718046
108	0xbae980b1	-0.0017814842
109	0x3b220ad4	0.0024725692
110	0x3b37893a	0.0028005377
111	0x3a99c747	0.0011732363
112	0xba3e2283	-0.00072530675
113	0x38ca7345	9.653581e-05
114	0x39b9f4a0	0.0003546821
115	0xba25305a	-0.00063014554
116	0xbab29e8c	-0.0013627573
117	0xbac1898b	-0.0014765722
118	0xba5a2ee8	-0.00083230296
119	0xb8f4b620	-0.0001166875
120	0x3af22c5c	0.0018476355
121	0x3b87bdf7	0.0041425186
122	0x3b1855d8	0.0023244526
123	0xba89b0f7	-0.001050501
124	0xbaa4fc04	-0.0012587314
125	0xb9a9ae21	-0.00032363928
126	0x3a0ffa7f	0.0005492344
127	0x37e87bdb	2.771423e-05
128	0xba7fc00e	-0.00097560964
129	0xb9b9d0c4	-0.00035441492
130	0x3aeb4c17	0.0017951754
131	0x3b35f1f4	0.0027762624
132	0x3b01bfeb	0.001979823
133	0x3b3e4de0	0.0029038116
134	0x3b53ffce	0.0032348516
135	0x3b25671b	0.0025238458
136	0x3a10da84	0.00055257254
137	0x39fc3a7c	0.0004810876
138	0x3a6f06c3	0.0009118134
139	0x3a537210	0.0008066008
140	0x3aeb5b96	0.0017956372
141	0x3b73f5bc	0.0037225327
142	0x3baaff93	0.005218455
143	0x3b3ce1a0	0.0028821006
144	0x3b1408e1	0.00225883
145	0x3b5cc641	0.0033687504
146	0x3b8004bc	0.0039068144
147	0xba3ba63f	-0.00071582565
148	0x3aa80022	0.0012817422
149	0x3b28861b	0.0025714699
150	0xbaa0799f	-0.0012243277
151	0xbb60abd6	-0.003428211
152	0xbb5689ff	-0.003273606
153	0xbb1eb29e	-0.002421535
154	0xba7ffd90	-0.0009765262
155	0x39111af7	0.00013838323
156	0x3aec67cf	0.0018036308
157	0x39982220	0.00029017124
158	0xbb31f2ac	-0.00271527
159	0xbb5f1da0	-0.0034044757
160	0xbb25ba05	-0.0025287878
161	0x3af9d420	0.001906041
162	0x3b4a0cbb	0.0030830342
163	0x3b9f22bf	0.004856437
164	0x3b8fdfad	0.004390678
165	0x3b0efef7	0.0021819451
166	0x3aae5006	0.0013298995
167	0x3b01b829	0.0019793606
168	0x3b90a28a	0.0044139074
169	0x3b86b555	0.004110972
170	0x3b838f94	0.0040149186
171	0x3b2bed6e	0.0026234048
172	0x3ac9cc4b	0.0015395967
173	0x3ac5aaef	0.0015080849
174	0x39e72dcc	0.00044093875
175	0xbb0083da	-0.001960984
176	0xbab679b2	-0.0013921766
177	0xb996bc30	-0.0002875044
178	0x388e12ad	6.774566e-05
179	0xb9b1c230	-0.00033904752
180	0x383a3327	4.4393495e-05
181	0x3a69be5a	0.0008916609
182	0xbbca43d9	-0.006172639
183	0xbbaed71c	-0.0053357016
184	0xbb87ea9f	-0.004147842
185	0xbb20c0ec	-0.0024529053
186	0xbaecca40	-0.0018065646
187	0xbab89151	-0.0014081394
188	0x39f063d7	0.00045850754
189	0xbab51456	-0.0013815265
190	0xbaca71b1	-0.001544526
191	0xbb0c6ee3	-0.0021428398
192	0xbacbc436	-0.0015546146
193	0xba34d4c9	-0.00068981625
194	0xba6b65c7	-0.00089797046
195	0xba4ce64c	-0.00078162993
196	0x3bc95da4	0.006145196
197	0x3bb33e93	0.005470106
198	0x3b9ab091	0.0047207554
199	0x3b407379	0.0029365702
200	0x3afe8199	0.0019417285
201	0x3adc5442	0.0016809779
202	0xb77f55a0	-1.52191205e-05
203	0xbb991f72	-0.004672938
204	0xbb7cdf75	-0.003858534
205	0xbb2742de	-0.0025522034
206	0xbab46783	-0.0013763759
207	0xbaa2fef6	-0.0012435603
208	0xba4edfb0	-0.00078916084
209	0x3a49cfbd	0.0007698497
210	0xbb020c95	-0.0019843925
211	0xbaba1b68	-0.0014198842
212	0xbadc39f4	-0.0016801939
213	0xbadea107	-0.0016985246
214	0xba9b6863	-0.0011856671
215	0xba299166	-0.00064685044
216	0xb990ec65	-0.00027641948
217	0xba78760c	-0.00094780396
218	0xba5c09da	-0.0008393802
219	0x38313473	4.2248936e-05
220	0x38683d62	5.5370278e-05
221	0xb9799677	-0.00023802543
222	0x39c183fd	0.00036910168
223	0x3acb96b1	0.001553258
224	0xba255078	-0.0006306241
225	0xba958aca	-0.001140916
226	0xba003dca	-0.000489202
227	0xba52d703	-0.00080429035
228	0xba9fa696	-0.0012180384
229	0xba1c296f	-0.0005957102
230	0x3a87ac5a	0.0010351047
231	0x3b07c64a	0.0020717555
232	0x3a61c527	0.0008612447
233	0x39ea06a6	0.00044636911
234	0x39995928	0.0002924886
235	0x3a88e17e	0.0010443178
236	0x3aae815e	0.0013313701
237	0x3a681d76	0.00088544877
238	0xbae71852	-0.0017631149
239	0xbb2012a5	-0.0024425176
240	0xbb50f41c	-0.0031883782
241	0xbb4d9def	-0.0031374653
242	0xbb04e863	-0.0020280115
243	0xbb11e4aa	-0.0022261539
244	0xbb71b77c	-0.0036883047
245	0xb963dd36	-0.00021730814
246	0xb8feb652	-0.000121456236
247	0xb9aa2c2d	-0.0003245784
248	0xba5c11bf	-0.00083949784
249	0xba560029	-0.0008163476
250	0xba133290	-0.00056151394
251	0xba483c81	-0.00076384103
252	0x3b1e1b87	0.0024125294
253	0x3b4d1e97	0.003129875
254	0x3af68c05	0.001881004
255	0x3a5aac17	0.00083416834
