checkpoints/ecgcnn_superclass.pt (torch, 432865 bytes, 34 tensors)

backbone.features.0.weight f4 [64, 12, 7]
0.16048504 0.058939964 -0.0204668 0.14382486 -0.11015744 -0.048301417 -0.16546765 0.17705388
-0.013849105 -0.15102908 0.15348023 -0.037030227 0.061354473 -0.10614174 0.042641647 -0.07406472
0.022542203 0.019554432 -0.032143164 0.052717943 -0.08082902 -0.14275345 0.051713955 0.1148848
-0.15405156 0.03983579 0.020043394 0.065555625 0.051214833 -0.089909375 0.13617949 -0.07261311
0.030194456 -0.034531806 -0.08262587 0.10246425 -0.075610444 0.015381021 0.039220057 -0.050979417
0.032033592 -0.116625786 0.04420348 0.1340522 0.04375591 -0.16089693 -0.023048919 -0.05878494
-0.04326911 0.2364284 0.08680047 0.023906242 -0.0986131 0.02199829 -0.05818189 -0.20659003
0.14666712 -0.00080997474 0.057067297 -0.07038599 -0.011640958 -0.050608378 -0.0515081 0.07174332
-0.07578056 -0.08741186 0.15530916 -0.043330796 0.033854242 -0.039374396 0.2640266 -0.035952512
0.073874846 -0.00017363453 -0.11117688 -0.07448097 -0.10919454 0.22250935 0.053790726 0.11125031
0.020094212 -0.1334936 -0.052738823 -0.21149412 0.12740941 -0.032669436 0.06761697 -0.029886134
0.05378396 0.07798586 0.15225865 -0.050027672 0.030658673 0.082335435 -0.08120076 0.025211332
0.15982263 0.05957933 -0.107571565 -0.12472286 -0.057553068 -0.008612413 -0.0186811 -0.060913365
-0.0062900847 -0.09735215 -0.060625706 -0.06736954 -0.12343728 -0.19610463 0.04225854 -0.13972996
0.107857816 -0.088088624 -0.068759814 0.016070811 0.07278122 -0.0817956 0.017346477 -0.11881334
-0.026131174 -0.032459274 -0.028598562 -0.034785584 -0.031863764 -0.021403583 0.066991076 -0.034812436
0.13079584 0.021933755 0.088000245 -0.0052769342 -0.24826396 0.27398488 0.008169403 -0.0012357729
-0.026921783 -0.08742117 0.021200772 -0.07567394 0.14854528 -0.14773574 0.059523094 -0.05926687
-0.015094927 0.01253446 0.0726762 0.28502327 0.10175987 -0.0434462 0.079403244 -0.0140178595
-0.009226905 -0.02714735 0.22582433 -0.024427904 0.19895774 0.15976296 0.13540123 -0.0435003
0.15666385 0.07461218 0.04041902 -0.024661746 0.11496836 0.060972538 -0.024685718 0.15030812
-0.04874658 -0.10058115 0.10544463 0.085965194 -0.07307301 -0.14220938 -0.00826793 -0.0070688743
-0.111076355 0.13075031 0.16285142 -0.124069884 -0.030023836 0.106851645 0.09619137 -0.04857448
0.017984113 0.059633967 0.1091373 0.011116983 -0.0009719561 0.023357987 0.022555433 -0.17188066
-0.026191736 0.1750039 0.0800216 -0.08918666 -0.09007793 -0.02148378 0.14185745 0.08348565
-0.21774366 -0.12786153 0.09272868 0.09788378 -0.023696834 -0.028316192 -0.015813898 -0.06980442
-0.04577527 0.079116754 0.018024867 0.07193766 -0.120069996 -0.10045306 -0.018065143 0.14685722
0.026550576 0.033615142 0.10241837 -0.09759398 -0.15277937 0.07161276 0.04327058 -0.014983854
-0.025562698 0.10051331 0.025937125 -0.014139973 -0.06259509 0.021165092 0.017434118 0.10100367
0.0023808836 0.06863546 0.07015247 0.04204576 0.08151015 0.083158515 -0.1725183 -0.21081449
0.04265108 -0.074351415 -0.13455327 -0.11222631 0.08575628 -0.13185066 -0.12131267 0.13323554
0.04459852 -0.015326379 -0.1416502 -0.025879296 -0.098692164 -0.068275206 0.004559905 -0.02974892
00000000: 3156 243e 086b 713d fea9 a7bc d346 133e
00000010: 399a e1bd b5d7 45bd 5a70 29be 9d4d 353e
00000020: 5be7 62bc 5ea7 1abe ec29 1d3e 02ad 17bd
00000030: d44e 7b3d d760 d9bd 02a9 2e3d 3eaf 97bd
00000040: 6daa b83c 9e30 a03c 8da8 03bd c5ee 573d
00000050: af89 a5bd f62d 12be 03d2 533d b948 eb3d
00000060: b1bf 1dbe da2a 233d 0b32 a43c 0742 863d
00000070: a5c6 513d 6822 b8bd a372 0b3e 2fb6 94bd
00000080: 5d5a f73c 3971 0dbd c137 a9bd c7d8 d13d
00000090: a6d9 9abd ae00 7c3c 36a5 203d cbcf 50bd
000000a0: a835 033d 80d9 eebd b50e 353d fb44 093e
000000b0: 6639 333d 2ac2 24be 16d1 bcbc 7ac8 70bd
000000c0: f33a 31bd 491a 723e 72c4 b13d 06d7 c33c
000000d0: aaf5 c9bd c235 b43c 2250 6ebd 568c 53be
000000e0: e82f 163e 7c54 54ba 66bf 693d 8826 90bd
000000f0: b7b9 3ebc bb4a 4fbd 28fa 52bd 29ee 923d
00000100: d732 9bbd fd04 b3bd 5d09 1f3e a27b 31bd
00000110: bfaa 0a3d 0c47 21bd 7f2e 873e f142 13bd
00000120: b24b 973d aa11 36b9 b4b0 e3bd 7b89 98bd
00000130: 63a1 dfbd 7ed9 633e aa53 5c3d 34d7 e33d
00000140: 9e9c a43c 8cb2 08be aa04 58bd ea91 58be
00000150: 9d77 023e 63d0 05bd c47a 8a3d c4d3 f4bc
00000160: 924c 5c3d 0db7 9f3d b1e9 1b3e d1e9 4cbd
00000170: e627 fb3c 7b9f a83d 964c a6bd ff87 ce3c
00000180: 8ba8 233e 7509 743d 7b4e dcbd b36e ffbd
00000190: c4bc 6bbd 141b 0dbc 1b09 99bc 4b80 79bd
000001a0: 0e1d cebb 9060 c7bd a952 78bd 0bf9 89bd
000001b0: afcc fcbd a7cf 48be 4a17 2d3d 5f15 0fbe
000001c0: 8fe4 dc3d cf67 b4bd f2d1 8cbd efa6 833c
000001d0: 520e 953d 7484 a7bd 331a 8e3c 6954 f3bd
000001e0: 0b11 d6bc 04f4 04bd 8847 eabc 547b 0ebd
000001f0: 9483 02bd 9156 afbc 9e32 893d 7c97 0ebd
00000200: 58ef 053e 6bae b33c 7939 b43d 22ea acbb
00000210: e838 7ebe bf47 8c3e f6d8 053c a8f9 a1ba
00000220: 128b dcbc df09 b3bd 3ead ad3c f0fa 9abd
00000230: 411c 183e 0a48 17be 7dce 733d d1c1 72bd
00000240: b650 77bc 565d 4d3c 42d7 943d 92ee 913e
00000250: 7b67 d03d a5f4 31bd 2b9e a23d 2aab 65bc
00000260: 722c 17bc 1f64 debc 7e3e 673e 071d c8bc
00000270: 94bb 4b3e e798 233e 9fa6 0a3e 5f2d 32bd
00000280: 7d6c 203e 45ce 983d 6a8e 253d 6e07 cabc
00000290: 8874 eb3d 57be 793d b439 cabc 5fea 193e
000002a0: 7eaa 47bd 7dfd cdbd 5bf3 d73d 850e b03d
000002b0: 4da7 95bd 569f 11be 3676 07bc 04a2 e7bb
000002c0: 007c e3bd 69e3 053e 86c2 263e 5a18 febd
000002d0: 8cf4 f5bc 09d5 da3d fbff c43d 09f6 46bd
000002e0: 6b53 933c bf42 743d 6083 df3d 0224 363c
000002f0: dfca 7eba 4059 bf3c 2cc6 b83c 7c01 30be
00000300: 0d90 d6bc 3934 333e 5de2 a33d 7fa7 b6bd
00000310: c77a b8bd c1fe afbc 1443 113e 86fa aa3d
00000320: 32f8 5ebe 22ee 02be 89e8 bd3d 4b77 c83d
00000330: dd1f c2bc 5cf7 e7bc 268c 81bc 9ff5 8ebd
00000340: d97e 3bbd f707 a23d e3a8 933c 0d54 933d
00000350: 42e7 f5bd 55ba cdbd 5afd 93bc bd61 163e
00000360: 9880 d93c 08b0 093d b9c0 d13d 5adf c7bd
00000370: 3272 1cbe b6a9 923d 7e3c 313d d77e 75bc
00000380: dd68 d1bc ecd9 cd3d 187a d43c 58ab 67bc
00000390: db31 80bd 6a62 ad3c ffd1 8e3c 03db ce3d
000003a0: 9908 1c3b c090 8c3d 19ac 8f3d 2d38 2c3d
000003b0: cbee a63d 034f aa3d a3a8 30be c1df 57be
000003c0: e6b2 2e3d 8e45 98bd 55c8 09be e8d6 e5bd
000003d0: fda0 af3d dc03 07be c772 f8bd e66e 083e
000003e0: f0ac 363d 7e1b 7bbc c00c 11be d100 d4bc
000003f0: 1e1f cabd dfd3 8bbd 416b 953b 02b4 f3bc

backbone.features.0.bias f4 [64]
-0.21042353 0.051572524 0.0013724723 0.13687663 -0.01532065 0.15238954 0.038314003 -0.1554194
-0.053765573 0.05430397 0.014854812 0.04098753 0.0035318155 0.030964343 0.066828705 0.047995333
0.03316359 -0.16496046 0.093033515 -0.0037730746 -0.058882404 0.0015152653 0.15600982 -0.090232655
0.025848556 0.039642286 0.14632787 -0.03043305 -0.027863955 0.013911672 -0.03093445 0.0018956031
-0.079121836 0.20947552 0.043306246 -0.08776931 0.17419979 0.11383121 0.2593573 0.024101473
0.005001066 -0.10035679 -0.03415908 0.023164501 0.13197742 -0.047328915 0.066459954 -0.0015800901
-0.1083265 -0.022131512 -0.091249086 -0.118322894 -0.12712635 0.024051895 0.017089518 0.083574526
0.055247672 -0.15307622 0.057190284 -0.13465805 0.03940595 0.097863086 -0.100512415 -0.11902796
00000000: 4479 57be b63d 533d 87e4 b33a 6329 0c3e
00000010: 7703 7bbc 010c 1c3e 25ef 1c3d 4326 1fbe
00000020: 4a39 5cbd d76d 5e3d 9961 733c 8ae2 273d
00000030: 0876 673b efa8 fd3c 7ddd 883d c196 443d
00000040: 8bd6 073d 65eb 28be 5b88 be3d b045 77bb
00000050: ad2e 71bd de9b c63a 0ac1 1f3e e6cb b8bd
00000060: 5ac0 d33c f35f 223d f9d6 153e bb4e f9bc
00000070: f342 e4bc c8ed 633c 3e6a fdbc e375 f83a
00000080: a10a a2bd c080 563e e461 313d 65c0 b3bd
00000090: 6e61 323e 5620 e93d 7bca 843e 7470 c53c
000000a0: fbdf a33b dc87 cdbd 64ea 0bbd 7bc3 bd3c
000000b0: 1725 073e f7db 41bd 281c 883d 071b cfba
000000c0: 49da ddbd 254d b5bc cde0 babd 4653 f2bd
000000d0: 692d 02be 7b08 c53c 51ff 8b3c 1f29 ab3d
000000e0: 624b 623d 03c0 1cbe 5c40 6a3d cde3 09be
000000f0: 2268 213d 716c c83d 74d9 cdbd eec4 f3bd

backbone.features.1.weight f4 [64]
1.0888623 0.8028145 1.0072409 0.9813818 0.757615 0.8772729 0.8537157 0.9625123
1.0715779 1.0034999 0.92460406 0.85083044 1.0018237 0.7749742 0.93567616 0.75401455
0.8096673 0.9419166 0.942543 0.7445041 0.85874534 0.9339436 0.97094554 1.0150365
0.96898973 1.061009 0.98940825 0.8706304 1.0160837 1.0346168 0.9339047 0.9058915
0.85017735 0.89488983 0.9575719 0.94943553 0.88059497 0.85948056 0.9248558 0.91013706
0.88140416 1.0728945 1.139252 0.944659 0.8939434 0.92291623 0.9713896 0.8327832
0.8253986 0.94112515 0.9781516 0.9653993 0.97139114 1.009677 1.0336435 0.93740755
0.9745854 1.0424248 1.0332029 0.87029475 0.8892696 1.0223163 0.8976886 0.90960556
00000000: d75f 8b3f 4085 4d3f 45ed 803f d63b 7b3f
00000010: 0ef3 413f f594 603f 1d8d 5a3f 3567 763f
00000020: 7729 893f af72 803f dab2 6c3f 06d0 593f
00000030: c23b 803f b664 463f 7988 6f3f 1907 413f
00000040: 5b46 4f3f 7221 713f 804a 713f d297 3e3f
00000050: bcd6 5b3f ee16 6f3f e38f 783f b7ec 813f
00000060: b60f 783f 25cf 873f dc49 7d3f a2e1 5e3f
00000070: 080f 823f 536e 843f 6114 6f3f 81e8 673f
00000080: 39a5 593f 8017 653f 6f23 753f 350e 733f
00000090: ac6e 613f eb06 5c3f 5ac3 6c3f befe 683f
000000a0: b4a3 613f 9b54 893f 02d3 913f 2cd5 713f
000000b0: 7ad9 643f 3d44 6c3f fdac 783f 4831 553f
000000c0: 534d 533f 94ed 703f 2568 7a3f 6924 773f
000000d0: 17ad 783f 193d 813f 6e4e 843f f1f9 6f3f
000000e0: 6e7e 793f 2d6e 853f fe3f 843f a3cb 5e3f
000000f0: 2ca7 633f 43db 823f ecce 653f e9db 683f

backbone.features.1.bias f4 [64]
-0.19077225 -1.278058 -0.24113362 0.079029396 0.6793866 -0.32367167 -0.22909012 0.16620182
-0.31950262 -0.19981405 0.13121091 0.21054065 -0.23310558 -0.033662878 -0.32733336 0.3450779
0.0021656293 -0.07975542 -0.26801986 0.25380862 -0.15161917 -0.7631758 0.06583326 -0.056448117
-0.15779296 -0.17780025 0.16098312 -0.3012488 -0.096290424 -0.19191101 -0.33348703 -0.29472542
-0.049213357 0.044772297 -0.4737607 0.095515214 -0.8130941 0.71136224 0.17566082 -0.8264227
-0.17326973 -0.08873289 0.14547136 0.22926764 0.39957365 -0.39699635 -0.26820946 -0.872822
0.028138172 -0.56919837 -0.41376778 -0.29012802 0.16419993 -0.27333856 -0.3310174 -0.29740313
-0.0033901683 -0.08464895 -0.443143 -0.054605488 -0.10531395 -0.8577195 -0.36386436 -0.5941765
00000000: cd59 43be 6897 a3bf bbeb 76be 2ada a13d
00000010: 48ec 2d3f 4bb8 a5be 9a96 6abe cf30 2a3e
00000020: d995 a3be 0e9c 4cbe 275c 063e f897 573e
00000030: 3bb3 6ebe 16e2 09bd 3d98 a7be 0dae b03e
00000040: 3bed 0d3b cf56 a3bd e639 89be 34f3 813e
00000050: 0e42 1bbe 7d5f 43bf 97d3 863d 2436 67bd
00000060: 7a94 21be 4511 36be c2d8 243e 483d 9abe
00000070: ea33 c5bd 5284 44be d0be aabe 40e6 96be
00000080: f293 49bd 2863 373d c390 f2be 7b9d c33d
00000090: ef26 50bf d61b 363f 6ee0 333e 7090 53bf
000000a0: 9f6d 31be 97b9 b5bd 72f6 143e 23c5 6a3e
000000b0: eb94 cc3e 1b43 cbbe c052 89be 4371 5fbf
000000c0: 0682 e63c fcb6 11bf 5fd9 d3be a98b 94be
000000d0: 0724 283e 08f3 8bbe 1d7b a9be 3945 98be
000000e0: 962d 5ebb 6e5c adbd a4e3 e2be 01aa 5fbd
000000f0: d7ae d7bd 8193 5bbf 6e4c babe f31b 18bf

backbone.features.1.running_mean f4 [64]
-0.21025395 0.050431773 -0.0017454611 0.13604558 -0.015187051 0.14821821 0.032995503 -0.1503955
-0.053502783 0.054237295 0.0038212445 0.044856686 0.0029553971 0.030592162 0.07311083 0.05015657
0.030765818 -0.16241017 0.0923904 0.00052245124 -0.062337052 -0.0036705707 0.15289314 -0.09416579
0.026976936 0.036877625 0.13985373 -0.02186145 -0.027925046 0.01415167 -0.038279504 0.012611778
-0.08097907 0.21398455 0.043265287 -0.08977806 0.17393577 0.11239925 0.2583494 0.024901994
0.00061442633 -0.098829895 -0.036389958 0.028140903 0.12884647 -0.048533816 0.06326938 -0.006646349
-0.11585469 -0.023245245 -0.09365601 -0.11830915 -0.1291469 0.022073966 0.018035682 0.08061609
0.055863973 -0.1531703 0.056605086 -0.15136456 0.028915131 0.09790391 -0.10326569 -0.12307033
00000000: d04c 57be 8c91 4e3d f5c7 e4ba 884f 0b3e
00000010: 1cd3 78bc 84c6 173e 4b26 073d 4701 1abe
00000020: bc25 5bbd ed27 5e3d d86d 7a3b a5bb 373d
00000030: 56af 413b 6a9c fa3c 21bb 953d fa70 4d3d
00000040: 9908 fc3c da4e 26be 2e37 bd3d 1cf5 083a
00000050: 2355 7fbd f58d 70bb 0590 1c3e fed9 c0bd
00000060: bcfe dc3c fe0c 173d d135 0f3e c916 b3bc
00000070: 11c3 e4bc 68dc 673c f8ca 1cbd a2a1 4e3c
00000080: 5bd8 a5bd c41e 5b3e f136 313d 8fdd b7bd
00000090: 381c 323e 9431 e63d 5f46 843e 44ff cb3c
000000a0: 7411 213a 5467 cabd a30d 15bd c087 e63c
000000b0: 54f0 033e 65cb 46bd 6093 813d 9ec9 d9bb
000000c0: 3945 edbd d06c bebc b9ce bfbd 114c f2bd
000000d0: 163f 04be 76d4 b43c 91bf 933c 0c1a a53d
000000e0: 9fd1 643d add8 1cbe bcda 673d 50ff 1abe
000000f0: 6ddf ec3c d881 c83d f67c d3bd 4c0c fcbd

backbone.features.1.running_var f4 [64]
1.2852405 2.8065157 1.1881545 0.72575074 1.7107998 3.0834656 1.6858988 0.7281377
2.929687 1.9064474 4.547559 1.230747 1.9919509 1.1566375 1.2965378 1.5239569
1.9229311 1.7811654 5.9474726 1.5809604 1.5019431 1.9412934 1.2969756 1.9611294
0.850411 1.2983924 1.4237909 2.5792527 1.4522307 0.40647796 1.9528584 3.1775916
3.833716 1.2024549 1.6496091 1.5813887 0.72725636 3.5370145 0.7335991 0.9749766
1.1529343 2.910874 1.661173 1.7301557 1.8225981 1.8786778 1.2187408 1.6743989
0.7986028 2.7281039 1.5103037 1.9431856 2.9459102 1.5327399 2.1817896 2.3112109
1.4393051 1.8103985 1.5397844 3.228211 3.247342 1.1893135 1.2154613 0.95294094
00000000: c382 a43f f49d 3340 7215 983f cdca 393f
00000010: 7dfb da3f 8057 4540 88cb d73f 3b67 3a3f
00000020: fe7f 3b40 7806 f43f 9a85 9140 1e89 9d3f
00000030: 3ff8 fe3f b30c 943f f3f4 a53f 0511 c33f
00000040: 9b22 f63f 3afd e33f b251 be40 e95c ca3f
00000050: ac3f c03f 4d7c f83f 4c03 a63f 4a06 fb3f
00000060: 89b4 593f b931 a63f c83e b63f 7a12 2540
00000070: b2e2 b93f e11d d03e 44f7 f93f a95d 4b40
00000080: 9a5b 7540 0bea 993f 6426 d33f f26a ca3f
00000090: 792d 3a3f 725e 6240 27cd 3b3f 1198 793f
000000a0: 5a93 933f c24b 3a40 51a1 d43f be75 dd3f
000000b0: e54a e93f 8478 f03f b3ff 9b3f b452 d63f
000000c0: 3c71 4c3f 4199 2e40 a251 c13f 4eba f83f
000000d0: cb89 3c40 d230 c43f 71a2 0b40 e1ea 1340
000000e0: 263b b83f 23bb e73f a817 c53f 029b 4e40
000000f0: 74d4 4f40 6d3b 983f 3c94 9b3f f0f3 733f

backbone.features.4.weight f4 [64, 64, 7]
0.12443444 0.074747115 0.056866646 -0.0041794498 0.0017997453 -0.00023154193 -0.01571718 0.15784615
0.17679474 0.17525384 0.13064465 0.122422926 0.1615432 0.18155055 -0.028417267 -0.012838723
-0.028042663 -0.036845434 -0.039815888 -0.047827993 -0.057137903 0.13245492 0.09979579 0.10023201
0.1048389 0.084917426 0.097567 0.10479095 0.06998834 0.058489688 0.036873847 0.06306728
0.06871079 0.07128103 0.08411402 -0.017535478 0.0074403235 0.029394269 0.0050162207 0.041888505
0.011960018 -0.002226246 0.08003798 0.08420354 0.02174117 0.012315647 -0.057263967 -0.0501433
-0.06484225 0.05938498 0.0429746 0.03415494 -0.014405359 0.011322553 0.0279655 0.02681815
-0.024021925 -0.024318233 -0.038964834 -0.09634833 -0.066570796 -0.039342742 -0.08141747 -0.007223076
-0.0027349447 -0.018120285 -0.022866027 -0.019939741 0.0071182013 -0.025453657 -0.0002992004 -0.0041049803
-0.04642848 -0.020617984 -0.05006371 -0.10090449 -0.15708593 0.019314703 0.009447913 0.00610443
-0.013345996 -0.0054191225 -0.001182656 -0.017771913 0.014672074 0.020046562 -0.015456196 -0.027035756
-0.018531755 -0.0028202033 -0.011408179 0.026386729 0.017757809 0.012355604 0.007892055 -0.006596544
-0.022029592 -0.0023124132 -0.0050896974 -0.031055443 0.0019562065 0.044044096 0.003282484 0.04127638
0.047997773 -0.09634807 -0.0788215 -0.07701306 -0.09633929 -0.11683579 -0.07777601 -0.041325703
0.0024047308 -7.150785e-05 -0.007319755 -0.044324562 -0.06688514 -0.058985185 -0.049985275 0.03745204
0.018199531 -0.0055598314 -0.0045214444 -0.045456428 -0.043653257 -0.008113961 -0.013607619 0.018199116
0.027602257 0.010002579 0.025917472 0.028610839 0.051374447 0.023954436 -0.009408105 -0.0064503374
-0.013832459 -0.012553137 0.0024173297 0.0018226021 0.0113358665 0.022751393 -0.009664138 0.015986132
0.041839957 0.022855181 0.049202636 -0.0042629153 0.03215809 -0.009267583 0.00015439418 0.009552935
0.05167679 0.08984038 -0.007074154 -0.028378638 -0.03386851 -0.032142345 -0.034143537 -0.039314985
-0.00089085544 -0.0134354485 -0.02989651 -0.034812544 -0.08556558 -0.067632675 -0.06069888 -0.079162054
0.0019332801 -0.016643826 -0.034282364 -0.033451416 -0.025993185 -0.024462955 0.0071506975 0.051529195
-0.007988621 0.034425367 0.028700758 -0.010778632 -0.05801192 -0.083103366 0.124357 0.049316257
0.036214452 0.031708173 0.053783707 0.06771194 0.09798605 -0.07727999 -0.0628975 -0.035060864
-0.038277846 -0.056670174 -0.078687854 -0.059887435 0.050943278 0.027683116 -0.013063993 -0.018453224
-0.0316321 -0.04567013 -0.021261074 0.008258412 -0.0048455284 -0.0134416595 -0.03398133 -0.044286087
-0.079452686 -0.07818566 -0.10223457 -0.06911874 -0.06539303 -0.041277926 -0.07256762 -0.034503233
-0.03704847 0.002938315 0.000117150135 -0.009083591 -0.010589413 -0.028418446 -0.021913793 -0.06283748
-0.028590074 -0.0052153543 0.01742073 -0.016224088 0.015300948 -0.009284873 -0.012811194 -0.05101478
-0.064652935 -0.06897453 -0.061887402 -0.099503964 -0.10241342 -0.1174095 -0.036588386 -0.03237873
-0.0145765515 -0.013203785 -0.011244098 0.021134961 0.049193308 -0.08507207 -0.11909473 -0.09599511
-0.08418543 -0.085168265 -0.06373308 -0.07762174 0.088552944 0.08215979 0.081186555 0.10478997
00000000: 7cd7 fe3d 0415 993d 00ed 683d c4f3 88bb
00000010: 6ee5 eb3a 10ca 72b9 51c1 80bc 6ca2 213e
00000020: ae09 353e be75 333e b6c7 053e dfb8 fa3d
00000030: 956b 253e 63e8 393e 54cb e8bc 8259 52bc
00000040: bab9 e5bc 3deb 16bd fc15 23bd 49e7 43bd
00000050: 6f09 6abd 43a2 073e bc61 cc3d 7146 cd3d
00000060: c7b5 d63d 30e9 ad3d 35d1 c73d a39c d63d
00000070: 0c56 8f3d e292 6f3d 0809 173d 6b29 813d
00000080: 3eb8 8c3d cafb 913d f943 ac3d 90a6 8fbc
00000090: f5cd f33b 40cc f03c 1c5f a43b 4893 2b3d
000000a0: f4f3 433c 36e6 11bb f4ea a33d e872 ac3d
000000b0: 8a1a b23c 91c7 493c 9f8d 6abd 1063 4dbd
000000c0: 03cc 84bd aa3d 733d 2206 303d 0de6 0b3d
000000d0: 7404 6cbc 3b82 393c e717 e53c bdb1 db3c
000000e0: a1c9 c4bc 0837 c7bc 9799 1fbd 4652 c5bd
000000f0: 4556 88bd db25 21bd 34be a6bd 8eaf ecbb
00000100: c23c 33bb fe70 94bc 8951 bbbc ab58 a3bc
00000110: cd3f e93b 3084 d0bc ffdd 9cb9 1283 86bb
00000120: ca2b 3ebd 0ce7 a8bc 9b0f 4dbd 03a7 cebd
00000130: 22db 20be de39 9e3c 6bcb 1a3c ac07 c83b
00000140: 2aa9 5abc e592 b1bb 5a03 9bba 6796 91bc
00000150: 2363 703c b038 a43c fc3b 7dbc 177a ddbc
00000160: e8cf 97bc 29d3 38bb 5fe9 3abc fb28 d83c
00000170: d378 913c 296f 4a3c ae4d 013c d227 d8bb
00000180: 6777 b4bc db8b 17bb 7ac7 a6bb fc67 febc
00000190: b333 003b 9567 343d f11e 573b 6c11 293d
000001a0: 5099 443d 2352 c5bd 2b6d a1bd 06b9 9dbd
000001b0: 894d c5bd 9a47 efbd 0749 9fbd 2445 29bd
000001c0: b098 1d3b 7cf6 95b8 8eda efbb ac8d 35bd
000001d0: 14fb 88bd 739a 71bd 5cbd 4cbd 4f67 193d
000001e0: 2f17 953c 3f2f b6bb a028 94bb 8530 3abd
000001f0: c2cd 32bd 6bf0 04bc 7ef2 5ebc 5016 953c
00000200: 211e e23c dbe1 233c e150 d43c 4761 ea3c
00000210: 036e 523d 183c c43c 7424 1abc 5a5d d3bb
00000220: 8aa1 62bc acab 4dbc 106c 1e3b 61e4 ee3a
00000230: 12ba 393c 2161 ba3c 5556 1ebc 59f5 823c
00000240: 6060 2b3d ca3a bb3c b488 493d edaf 8bbb
00000250: 34b8 033d 0fd7 17bc dfe4 2139 ea83 1c3c
00000260: 0bab 533d 3cfe b73d 4ece e7bb 517a e8bc
00000270: b5b9 0abd b1a7 03bd 18da 0bbd c008 21bd
00000280: 4c88 69ba 5b20 5cbc 87e9 f4bc 9997 0ebd
00000290: 023d afbd 0083 8abd 649f 78bd b71f a2bd
000002a0: 1e66 fd3a a258 88bc aa6b 0cbd 5a04 09bd
000002b0: a9ef d4bc 8966 c8bc 6650 ea3b 4710 533d
000002c0: b4e2 02bc 9d01 0d3d da1d eb3c dc98 30bc
000002d0: e89d 6dbd 1932 aabd e2ae fe3d d8ff 493d
000002e0: 9b55 143d 6ee0 013d 4e4c 5c3d 8fac 8a3d
000002f0: e9ac c83d f944 9ebd 68d0 80bd fb9b 0fbd
00000300: 3bc9 1cbd fc1e 68bd 1927 a1bd 874c 75bd
00000310: e6a9 503d b4c7 e23c 5c0a 56bc 372b 97bc
00000320: a990 01bd 9a10 3bbd b42b aebc 4a4e 073c
00000330: 3dc7 9ebb 683a 5cbc 0230 0bbd 5465 35bd
00000340: 17b8 a2bd ce1f a0bd 5c60 d1bd 208e 8dbd
00000350: c8ec 85bd 0b13 29bd 559e 94bd 4353 0dbd
00000360: 23c0 17bd bf90 403b 80ae f538 58d3 14bc
00000370: 387f 2dbc cdcd e8bc 8e84 b3bc f0b0 80bd
00000380: bb35 eabc 90e5 aabb ebb5 8e3c 61e8 84bc
00000390: d4b0 7a3c 941f 18bc 0be6 51bc e0f4 50bd
000003a0: c268 84bd 8542 8dbd a57d 7dbd bcc8 cbbd
000003b0: 21be d1bd 6474 f0bd b4dd 15bd 8f9f 04bd
000003c0: 7dd2 6ebc b054 58bc 2a39 38bc 3a23 ad3c
000003d0: ec7e 493d 443a aebd f0e7 f3bd 1699 c4bd
000003e0: 6969 acbd b36c aebd 7d86 82bd 26f8 9ebd
000003f0: 3f5b b53d 6443 a83d 2345 a63d 209c d63d

backbone.features.4.bias f4 [64]
-0.060208727 0.014776691 0.013629174 -0.029395843 -0.0031172428 0.037810624 0.07010403 0.008326129
0.02377279 -0.026996609 -0.021962484 0.059293676 -0.045532726 -0.02900359 -0.013228623 0.039973103
0.064520106 0.037496105 0.08334219 0.045399003 0.0064863865 0.026333328 -0.040339787 0.03477349
0.05289662 0.04153928 0.021765629 -0.13252461 0.04171967 0.051672474 0.043019123 -0.055731144
-0.04635428 0.039507 0.013210058 -0.093122326 0.016480433 -0.039760306 -0.042730942 0.009643574
0.002786252 -0.024897628 0.020024823 -0.020010345 0.02158823 0.08335021 0.03789196 0.017549468
-0.026343878 0.041134074 0.02552444 0.08608527 -0.03693617 0.06910389 -0.03854878 0.029960644
-0.054633874 -0.009407519 0.0054536746 0.0118754795 -0.066722654 -0.008056247 -0.02783654 0.027282784
00000000: 6d9d 76bd ef19 723c e64c 5f3c 8dcf f0bc
00000010: a84a 4cbb 50df 1a3d b492 8f3d 516a 083c
00000020: 27bf c23c fe27 ddbc abea b3bc eddd 723d
00000030: 8680 3abd f098 edbc debc 58bc d6ba 233d
00000040: 1e23 843d 8495 193d 4faf aa3d 4ef4 393d
00000050: c18b d43b feb8 d73c 553b 25bd a66e 0e3d
00000060: 20aa 583d 1825 2a3d d54d b23c 88b4 07be
00000070: 3fe2 2a3d 84a6 533d d234 303d 5746 64bd
00000080: fcdd 3dbd 18d2 213d 006f 583c ebb6 bebd
00000090: f901 873c b4db 22bd a406 2fbd 1500 1e3c
000000a0: 8d99 363b 1cf6 cbbc 190b a43c bcec a3bc
000000b0: cdd9 b03c 84b3 aa3d 9a34 1b3d e7c3 8f3c
000000c0: 1ecf d7bc 347c 283d a118 d13c 794d b03d
000000d0: 624a 17bd 5786 8d3d 53e5 1dbd 0670 f53c
000000e0: c5c7 5fbd ff21 1abc bdb4 b23b 5f91 423c
000000f0: e3a5 88bd 59fe 03bc 7509 e4bc 2580 df3c

backbone.features.5.weight f4 [64]
1.4098811 1.5128965 1.7600442 1.5998677 1.4763292 1.4847229 1.4055218 1.445854
1.5556223 1.6350073 1.4987397 1.6331832 1.4566758 1.6477641 1.5652189 1.5790108
1.5620317 1.4317371 1.5697511 1.7510164 1.3903455 1.5532868 1.627077 1.4332396
1.4888077 1.4551697 1.7272934 1.5638633 1.437335 1.4979255 1.6033391 1.4211669
1.420243 1.7352666 1.498261 1.5704548 1.5264316 1.447231 1.5769185 1.6571866
1.4911484 1.4762548 1.5518073 1.4187473 1.5593742 1.4692452 1.4237913 1.4544044
1.5938567 1.4716702 1.5452149 1.5520877 1.5714753 1.4910936 1.4207822 1.40509
1.6150743 1.4829086 1.5926234 1.7052633 1.522937 1.5044675 1.4519285 1.7920834
00000000: fc76 b43f 98a6 c13f 2149 e13f 77c8 cc3f
00000010: 5bf8 bc3f 660b be3f 23e8 b33f be11 b93f
00000020: a21e c73f eb47 d13f b4d6 bf3f 260c d13f
00000030: 5a74 ba3f efe9 d23f 1859 c83f 071d ca3f
00000040: a8f0 c73f 2943 b73f 9bed c83f 4e21 e03f
00000050: d7f6 b13f 1ad2 c63f 0f44 d03f 6574 b73f
00000060: 4091 be3f 0043 ba3f f317 dd3f ac2c c83f
00000070: 98fa b73f 06bc bf3f 373a cd3f cce8 b53f
00000080: 86ca b53f 371d de3f 04c7 bf3f aa04 c93f
00000090: 1c62 c33f de3e b93f 77d8 c93f b11e d43f
000000a0: f3dd be3f ebf5 bc3f 9fa1 c63f 8399 b53f
000000b0: 9399 c73f 3a10 bc3f cb3e b63f ec29 ba3f
000000c0: 7f03 cc3f b05f bc3f 9ac9 c53f cfaa c63f
000000d0: 1a26 c93f 28dc be3f 31dc b53f fdd9 b33f
000000e0: c1ba ce3f f3cf bd3f 15db cb3f 1146 da3f
000000f0: 9aef c23f 6492 c03f cbd8 b93f fd62 e53f

backbone.features.5.bias f4 [64]
-0.18385005 0.10292364 0.16794401 0.03226951 -0.12775742 0.19802576 -0.100073114 -0.14636113
0.01724796 -0.010811648 0.1928698 0.1142562 0.27977988 0.015149808 0.086834475 0.031691376
0.26736882 -0.13182649 0.2393335 -0.08455986 0.11485059 0.22072473 -0.0020535504 -0.09012812
0.056055922 0.08117209 0.048255686 0.11436527 0.22983426 -0.018956812 0.004801352 -0.1601548
0.16725187 0.016425919 0.21231745 0.10729576 0.14561936 0.12163737 -0.16401434 0.1661065
0.1151843 0.12009708 0.1647726 -0.11283988 0.0078076087 0.25707904 -0.19364816 -0.23738487
0.00894673 0.15815711 0.18184523 0.07695091 0.18095274 0.16453162 0.060118753 -0.103198074
0.09266652 0.19497395 -0.07985101 0.18808693 -0.039170653 0.1299348 -0.17757899 0.12993577
00000000: 3043 3cbe a1c9 d23d 84f9 2b3e 092d 043d
00000010: d7d2 02be 44c7 4a3e 22f3 ccbd b1df 15be
00000020: 984b 8d3c 5723 31bc a97f 453e 28ff e93d
00000030: 4f3f 8f3e e636 783c 46d6 b13d d1ce 013d
00000040: 91e4 883e 86fd 06be d713 753e b82d adbd
00000050: c936 eb3d aa05 623e dc94 06bb 1795 b8bd
00000060: e59a 653d 8d3d a63d c1a7 453d 5738 ea3d
00000070: ac59 6b3e 514b 9bbc a954 9d3b 9fff 23be
00000080: 1344 2b3e a68f 863c bf69 593e e1bd db3d
00000090: 3e1d 153e 031d f93d 60f3 27be d317 2a3e
000000a0: bfe5 eb3d 75f5 f53d 26ba 283e 9818 e7bd
000000b0: f8d6 ff3b dd9f 833e b44b 46be 0515 73be
000000c0: 4e95 123c f0f3 213e a335 3a3e 7098 9d3d
000000d0: ad4b 393e fa7a 283e 153f 763d 8359 d3bd
000000e0: f2c7 bd3d 40a7 473e ed88 a3bd dc99 403e
000000f0: 6871 20bd a10d 053e 44d7 35be e20d 053e

backbone.features.5.running_mean f4 [64]
1.0700176 0.4303558 -1.3466471 -0.9917397 0.17760967 -1.2125946 1.0598935 1.0917163
-0.25367793 -0.26963565 -2.0398636 0.2726022 -0.6990781 0.3645861 -0.0098525155 -0.7603704
-0.6582048 0.35893568 -0.27386823 -0.877132 0.63366526 0.153294 -0.35412395 0.762625
-0.67351747 -0.74946845 -0.08637693 -0.18319534 -0.9920107 -0.3253953 -0.28238803 0.4381681
0.16199332 -0.27418506 -1.4181771 -2.0130272 0.17899048 -0.9082815 -0.025013717 -1.4469098
0.4218379 0.03626529 0.113143556 0.99393964 -0.6458335 0.6371267 1.3965676 0.83800197
-1.2635455 0.271278 -0.5085646 0.036772717 -0.2493788 -1.7713261 -1.8187959 0.58198345
-0.0036771384 0.1428167 0.32460073 -0.93828094 0.668153 0.6370438 0.650249 -1.2148962
00000000: 56f6 883f 9857 dc3e ef5e acbf a7e2 7dbf
00000010: 4fdf 353e 4d36 9bbf 97aa 873f 5cbd 8b3f
00000020: 13e2 81be af0d 8abe 208d 02c0 8492 8b3e
00000030: c8f6 32bf 08ab ba3e 726c 21bc a2a7 42bf
00000040: 1c80 28bf 6bc6 b73e 7538 8cbe b98b 60bf
00000050: e337 223f 1af9 1c3e bc4f b5be 643b 433f
00000060: a46b 2cbf 2add 3fbf 63e6 b0bd 8f97 3bbe
00000070: 6af4 7dbf 369a a6be 2a95 90be 9257 e03e
00000080: 94e1 253e fc61 8cbe d486 b5bf 70d5 00c0
00000090: 4849 373e 2385 68bf 91e9 ccbc 5734 b9bf
000000a0: 23fb d73e ea8a 143d cfb7 e73d d472 7e3f
000000b0: 5855 25bf bc1a 233f bac2 b23f 4c87 563f
000000c0: dcbb a1bf f3e4 8a3e 4a31 02bf fd9e 163d
000000d0: 285d 7fbe d0ba e2bf 4ece e8bf defc 143f
000000e0: 25fc 70bb 8a3e 123e 1132 a63e 2e33 70bf
000000f0: 130c 2b3f 4d15 233f b876 263f b881 9bbf

backbone.features.5.running_var f4 [64]
1.573726 1.8643928 1.3432319 1.0905943 1.5150547 1.3762419 1.4731966 2.0636768
1.0542419 1.9844745 1.5038527 1.199943 1.7469437 1.3870094 1.5376952 1.0721362
1.7615582 1.1811033 1.5690604 1.0293173 1.5084535 1.2922893 1.6915257 1.8646003
1.0483713 1.302975 2.0037193 1.1776569 1.661925 1.2638743 1.3284949 1.487243
1.4011086 1.6441905 1.265266 1.2352448 1.9373296 1.3595259 1.98177 1.2615272
1.1441675 1.108873 1.1297158 2.105617 1.1027701 1.8387539 1.9229811 1.8094996
1.1586128 1.4400967 1.5374751 1.2620753 1.4697262 1.8162342 2.52404 1.6300235
1.9778161 1.2505382 2.3011472 2.0118897 1.6403142 1.9276599 1.7291205 1.3360332
00000000: db6f c93f 6ca4 ee3f 06ef ab3f 9898 8b3f
00000010: 50ed c13f b228 b03f b591 bc3f 4813 0440
00000020: 66f1 863f 4303 fe3f 3f7e c03f bb97 993f
00000030: da9b df3f 8689 b13f 32d3 c43f c23b 893f
00000040: bd7a e13f 652e 973f f9d6 c83f abc0 833f
00000050: 0115 c13f bc69 a53f ea83 d83f 39ab ee3f
00000060: 0831 863f e3c7 a63f f03c 0040 76bd 963f
00000070: f5b9 d43f a2c6 a13f 1f0c aa3f fb5d be3f
00000080: 8757 b33f d674 d23f 3cf4 a13f 801c 9e3f
00000090: 6bfa f73f f204 ae3f a4aa fd3f b979 a13f
000000a0: 1574 923f 8def 8d3f 879a 903f 6ec2 0640
000000b0: 9227 8d3f 4a5c eb3f 3f24 f63f af9d e73f
000000c0: 6d4d 943f 1755 b83f fccb c43f af8b a13f
000000d0: fd1f bc3f 5d7a e83f df89 2140 9ca4 d03f
000000e0: 1429 fd3f a311 a03f ff45 1340 cdc2 0040
000000f0: d1f5 d13f 8fbd f63f d253 dd3f 2303 ab3f

head.weight f4 [4, 64]
-0.027198806 -0.1948206 0.5071313 -0.15779778 0.3955982 0.402851 0.24927057 -0.08823732
-0.21207774 -0.4711646 0.44032246 -0.5807646 0.0039708083 -0.6501789 -0.3306363 0.06476098
-0.34545317 -0.40386957 -0.40378523 0.7045433 -0.06094509 -0.09788276 -0.27361497 -0.14310624
0.2924503 0.29111534 -0.11044558 -0.5647309 0.3653017 -0.21866257 -0.31336498 0.28191915
0.026212042 -0.021044305 0.40325174 0.26953524 0.23811515 0.3556186 -0.06398398 0.6464372
-0.33989945 -0.21354532 -0.46896803 -0.12705497 0.56014127 0.19200087 -0.1108884 -0.15578288
-0.09456714 -0.18215257 0.3150237 -0.30823192 -0.02874867 0.08391552 0.305407 -0.13532506
-0.15749227 -0.36074167 -0.3321256 -0.55936813 -0.5433611 -0.13121025 -0.05486532 0.63687795
0.22863139 -0.5246067 -0.5613985 -0.48129222 -0.07456035 0.13106477 0.25173986 0.44140086
0.19252366 0.41331103 0.4173715 -0.2166578 0.21202813 0.05097788 -0.583943 -0.01139048
0.43094954 -0.025865097 0.2829167 -0.28340438 -0.38015214 0.1967114 -0.6630974 0.21472146
-0.028313857 0.34830862 -0.6503022 -0.3508329 0.40110534 -0.008898909 0.1336395 0.0074712527
-0.32254228 -0.7932005 0.40852833 -0.4168785 -0.5319619 0.07313285 0.24342482 0.015959581
-0.43537763 -0.44731987 -0.15822095 0.286718 0.17022139 0.35782033 0.39462328 0.2282143
-0.08596888 -0.41695514 -0.018773498 0.009106639 0.014977986 0.5278711 0.35906616 0.15963672
-0.6600747 -0.26646322 0.41046724 0.33952883 0.1482812 -0.50351024 0.31325108 0.07326403
-0.11664808 0.26523358 0.10089876 0.5089515 -0.013584582 0.3507262 0.07450097 -0.25349852
0.5771119 -0.42284527 0.06940809 -0.045425814 -0.17339809 -0.3253398 -0.11934534 0.58304083
-0.11243669 -0.08136147 -0.24502763 -0.33459616 0.16698745 -0.469715 -0.12051412 0.20668022
0.52444464 -0.36985394 0.13519071 -0.24376991 0.2705508 0.48676595 0.5253489 -0.026781254
-0.31427708 -0.17870604 -0.026157679 0.3599368 0.007864765 0.47043043 -0.5932722 0.060421232
-0.2948267 -0.33936056 -0.29288456 0.15270972 -0.3742126 -0.021270325 -0.19977477 -0.3081831
0.6142012 -0.21708466 -0.3958022 0.4846448 -0.5026295 0.116581604 -0.3121883 0.26110914
0.17626823 -0.15037583 -0.30682737 -0.35028735 -0.28385332 0.12819563 -0.35325378 -0.22151588
0.48324493 -0.28302428 0.036979813 -0.06382088 0.42325363 -0.060784806 0.4617673 0.31160775
0.011147193 0.074896015 0.07542839 -0.20808852 -0.38246438 -0.01709364 -0.112516575 0.12523746
-0.2604951 0.41437948 -0.37698582 0.12737776 -0.32751727 -0.40780973 -0.0038672746 0.34151083
0.094585635 0.24756008 -0.08660229 -0.1088879 -0.1480873 0.26255664 0.07924827 0.4616581
-0.36811647 -0.085388206 -0.059655044 0.20120287 -0.29757267 -0.08307099 0.29827136 -0.04701036
-0.32886228 -0.32190517 -0.3996792 0.33123535 0.18320845 -0.2470717 0.39666378 0.4152461
0.16704568 -0.30878437 -0.40650988 -0.18602619 -0.4050417 0.16314562 0.31182396 0.4366642
-0.1667261 -0.31218544 0.19153614 -0.1897548 0.24421516 -0.34591824 0.36544433 -0.081118114
00000000: 08d0 debc 0d7f 47be 5bd3 013f be95 21be
00000010: d98b ca3e 7c42 ce3e c940 7f3e c5b5 b4bd
00000020: e82a 59be 7d3c f1be f271 e13e fdac 14bf
00000030: 8e1d 823b 2072 26bf 2949 a9be 68a1 843d
00000040: 3ddf b0be fec7 cebe f0bc cebe f35c 343f
00000050: 8fa1 79bd c276 c8bd 4317 8cbe 718a 12be
00000060: 0cbc 953e 120d 953e 4b31 e2bd 3492 10bf
00000070: d308 bb3e 15e9 5fbe 6071 a0be b557 903e
00000080: a3ba d63c 1b65 acbc 0377 ce3e 8600 8a3e
00000090: 75d4 733e a413 b63e 080a 83bd e97c 253f
000000a0: 4d07 aebe a0ab 5abe 941c f0be b31a 02be
000000b0: 6b65 0f3f e09b 443e 7519 e3bd 8c85 1fbe
000000c0: 6bac c1bd 3486 3abe c94a a13e 93d0 9dbe
000000d0: 5582 ebbc e6db ab3d 4e5e 9c3e a792 0abe
000000e0: a745 21be 22b3 b8be 5e0c aabe c032 0fbf
000000f0: b719 0bbf fb5b 06be 75ba 60bd 6f0a 233f
00000100: 591e 6a3e a04c 06bf d0b7 0fbf ef6b f6be
00000110: 19b3 98bd d835 063e 0ce4 803e 4bff e13e
00000120: ec24 453e 819d d33e b8b1 d53e 8bdb 5dbe
00000130: e71d 593e 2ece 503d 4a7d 15bf 239f 3abc
00000140: 6ba5 dc3e 0ae3 d3bc 75da 903e 611a 91be
00000150: 4da3 c2be b76e 493e c0c0 29bf f1df 5b3e
00000160: 76f2 e7bc 8255 b23e 347a 26bf 5fa0 b3be
00000170: ae5d cd3e bbcc 11bc cbd8 083e 69d1 f43b
00000180: 4324 a5be 300f 4bbf a02a d13e 1971 d5be
00000190: a82e 08bf adc6 953d 5b44 793e abbd 823c
000001a0: d1e9 debe 1c07 e5be ac04 22be b4cc 923e
000001b0: 844e 2e3e 3a34 b73e 100c ca3e 02b1 693e
000001c0: 7410 b0bd 257b d5be e1ca 99bc 0334 153c
000001d0: 3a66 753c 8f22 073f 85d7 b73e cf77 233e
000001e0: a8fa 28bf de6d 88be c328 d23e b9d6 ad3e
000001f0: 07d7 173e 0ce6 00bf 7262 a03e 740b 963d
00000200: 30e5 eebd b2cc 873e 02a4 ce3d a54a 023f
00000210: de91 5ebc 6292 b33e f793 983d 8fca 81be
00000220: 9bbd 133f 2d7f d8be d425 8e3d 6b10 3abd
00000230: 458f 31be f092 a6be 546b f4bd 2a42 153f
00000240: 3545 e6bd d8a0 a6bd 86e8 7abe 3050 abbe
00000250: c2fe 2a3e 7c7e f0be 1bd0 f6bd fba3 533e
00000260: 0142 063f 7f5d bdbe 6f6f 0a3e d29e 79be
00000270: a285 8a3e 6339 f93e 447d 063f 5c64 dbbc
00000280: ede8 a0be b7fe 36be a148 d6bc a349 b83e
00000290: 37db 003c 42dc f03e b0e0 17bf 417c 773d
000002a0: 86f3 96be abc0 adbe f7f4 95be f05f 1c3e
000002b0: cb98 bfbe 1b3f aebc c291 4cbe 2dca 9dbe
000002c0: 4a3c 1d3f 714b 5ebe 96a6 cabe 5d23 f83e
000002d0: 54ac 00bf 56c2 ee3d 25d7 9fbe 19b0 853e
000002e0: a97f 343e 1ffc 19be 7a18 9dbe dd58 b3be
000002f0: 3955 91be b745 033e aedd b4be 0fd5 62be
00000300: e16b f73e 8fe8 90be 2578 173d 86b4 82bd
00000310: b3b4 d83e 7df9 78bd c36c ec3e 0d8b 9f3e
00000320: b7a2 363c 1563 993d 337a 9a3d 2815 55be
00000330: 5fd2 c3be f607 8cbc 176f e6bd 403e 003e
00000340: 9d5f 85be 8c29 d43e 4904 c1be 516f 023e
00000350: 58b0 a7be 70cc d0be 1a72 7dbb 82da ae3e
00000360: 1db6 c13d 6480 7d3e 8b5c b1bd 9f00 dfbd
00000370: 32a4 17be d36d 863e eb4c a23d 735e ec3e
00000380: c379 bcbe 03e0 aebd d958 74bd 2008 4e3e
00000390: 725b 98be 2021 aabd 06b7 983e ef8d 40bd
000003a0: a360 a8be c1d0 a4be c1a2 ccbe ae97 a93e
000003b0: ff9a 3b3e 5d00 7dbe 8417 cb3e 239b d43e
000003c0: 060e 2b3e fc18 9ebe 1022 d0be a67d 3ebe
000003d0: a061 cfbe a50f 273e 64a7 9f3e 7392 df3e
000003e0: 3fba 2abe c5d6 9fbe 0d22 443e 154f 42be
000003f0: 8a13 7a3e 321c b1be 851b bb3e 4121 a6bd

head.bias f4 [4]
0.10942641 -0.011725696 0.060954526 -0.072668746
00000000: f41a e03d 221d 40bc 74ab 793d 5ad3 94bd

exp_avg f4 [64, 12, 7]
-0.0014220875 -0.0005139779 -0.00011154328 0.00018323111 -7.923053e-05 -0.0014874559 -0.002573684 -0.0016999439
-0.0020566853 -0.0021706913 -0.0017960186 -0.0016133577 -0.0018750952 -0.001532383 -0.00030164275 -0.0015268192
-0.0020273014 -0.0019410936 -0.001508807 -0.00041094967 0.00097447 0.0018157744 0.0015072313 0.0013428939
0.00095586374 0.0010018363 0.00196551 0.0023900648 -0.000632429 0.0006076444 0.0011320874 0.001246576
0.00084843003 -0.00060034427 -0.0020226324 -0.0011466749 -0.002054058 -0.0024020283 -0.0021442096 -0.0017817685
-0.0012963429 -0.0002980566 0.004636355 0.0037042464 0.0036761402 0.0038613612 0.0040950724 0.005018524
0.005873833 0.00049668556 -0.00013324337 0.00017250904 0.0009953232 0.0018663784 0.0028898073 0.004297979
0.002440166 0.0017249335 0.0013238785 0.0016074311 0.0020868105 0.0025481475 0.0038806773 0.0024833898
0.0023801078 0.0024345363 0.0032115963 0.002606462 0.0008507199 0.0009693454 -0.000695218 -0.00065709103
-0.00034649373 0.00054188503 0.00017443678 -0.0010132797 -0.00082830264 0.00012929381 -0.00025632206 -0.00015955348
0.00041346898 -4.8334674e-05 -0.00091935456 -0.0008261522 0.0044784416 0.0034150672 0.00081997964 -0.0022546812
-0.0050591375 -0.0045586103 -0.001499265 0.004786544 0.0049793385 0.0036785598 0.0027757853 0.0029685
0.004158317 0.0050290045 0.00039428525 0.0016069716 0.0028279123 0.004899062 0.007787646 0.008476387
0.00638587 -0.0053979545 -0.004901535 -0.0026429277 -0.00033902217 0.0011646271 0.0001752963 -0.0021011352
0.0023033363 0.0009883957 -0.0011982511 -0.0041606207 -0.0074504944 -0.0075702462 -0.0046088477 0.0029394433
0.0037500353 0.0037184916 0.004399929 0.006177886 0.007247247 0.00653617 -0.0035324695 -0.0044051674
-0.004347738 -0.003191035 -0.0010625987 -0.00029329793 -0.00078504754 -0.0015499116 -0.002882228 -0.0041989735
-0.0033883625 -0.00037447727 0.0016787285 0.0020253377 0.0016822221 0.00092240947 -0.00058831746 0.0004049829
0.0028879263 0.0048552942 0.005740967 0.0001946431 -0.0017872439 -0.0055487026 -0.0064255632 -0.0050239847
-0.0024411352 0.00055722316 0.0034145354 0.0018813447 -0.0013531441 -0.0033625907 -0.002647282 0.00012007455
0.0035206194 0.0014598173 0.001017309 -0.000844141 -0.0019120276 -0.0011587961 0.00059953734 0.0020604024
-0.00088610844 -0.0017582125 -0.0026357023 -0.0023458293 -0.0014093565 -0.0011500047 -0.0018450889 0.000285787
0.0003524591 0.0010872539 0.0012943108 0.0008531462 0.0005982045 0.001066361 0.0011357233 0.0020426328
0.0036081474 0.0035305398 0.0021976125 0.0016984092 0.0028261647 0.00034523045 0.00080630893 0.0008771027
0.000587575 0.00031026424 0.00030746832 0.00043455683 -0.0011817197 -0.0022015788 -0.0036160173 -0.0034105845
-0.002103959 -0.0016543878 -0.002706013 0.00081187626 0.0013794515 0.0027005854 0.0027713527 0.0017447599
0.001317412 0.002238706 0.0018941719 0.0015469332 0.0015342279 0.0012718546 0.0006494383 0.00041366572
0.0007037684 0.001220108 -0.0005247323 -0.0015851527 -0.0013272358 -0.00060074555 -0.00034846284 -0.001166552
0.0017960736 0.00035023913 -0.0005101503 -0.00041789652 -1.6192917e-05 2.398285e-05 -0.0005849573 -0.0020809248
-0.0030182682 -0.0020996649 -0.001711768 -0.0026675207 -0.003298838 -0.002875078 -0.00041604065 -0.00071150105
-0.0001058756 -0.00058366597 -0.0014286261 -0.0010421745 -6.125458e-05 0.0014930409 0.0011002036 0.0011689633
0.0010417298 0.0009816149 0.0014029446 0.0016602001 -0.000994601 -0.0011232771 -0.0014262048 -0.0017622596
00000000: 5765 baba 79bc 06ba 58ec e9b8 ba21 4039
00000010: 9128 a6b8 bdf6 c2ba 41ab 28bb a7d0 deba
00000020: 74c9 06bb 2842 0ebb 6268 ebba 4d77 d3ba
00000030: c1c5 f5ba 3eda c8ba ce25 9eb9 8d1f c8ba
00000040: 79dc 04bb 4b6c feba 29c3 c5ba bb74 d7b9
00000050: 9373 7f3a 47ff ed3a 4a8e c53a 0b04 b03a
00000060: ee92 7a3a 0c50 833a c9cf 003b a2a2 1c3b
00000070: 97c9 25ba 534a 1f3a 8d62 943a 2664 a33a
00000080: 2d69 5e3a 6c60 1dba 248e 04bb 064c 96ba
00000090: 609d 06bb 596b 1dbb de85 0cbb 3b8a e9ba
000000a0: 0dea a9ba 7b44 9cb9 91ec 973b f1c2 723b
000000b0: 66eb 703b e40e 7d3b f52f 863b 6e72 a43b
000000c0: 4879 c03b 0134 023a 3fb7 0bb9 8be3 3439
000000d0: 8175 823a 44a1 f43a ec62 3d3b 10d6 8c3b
000000e0: 31eb 1f3b 2a17 e23a fe85 ad3a 70b0 d23a
000000f0: dfc2 083b d2fe 263b f652 7e3b 5ec0 223b
00000100: 95fb 1b3b be8c 1f3b a579 523b 2dd1 2a3b
00000110: d902 5f3a ab1b 7e3a 4a3f 36ba a240 2cba
00000120: 9aa9 b5b9 4a0d 0e3a 04e9 3639 06d0 84ba
00000130: 7322 59ba 0b93 0739 f762 86b9 d04d 27b9
00000140: dec6 d839 f6ba 4ab8 d700 71ba 2392 58ba
00000150: e4bf 923b 52cf 5f3b e7f3 563a 46c3 13bb
00000160: 1fc7 a5bb 6560 95bb fc82 c4ba 71d8 9c3b
00000170: b829 a33b fe13 713b f3e9 353b 2a8b 423b
00000180: 7e42 883b 59ca a43b 12b8 ce39 05a1 d23a
00000190: 7f54 393b 5088 a03b 822f ff3b 8be0 0a3c
000001a0: 8f40 d13b 53e1 b0bb 0e9d a0bb f834 2dbb
000001b0: c9be b1b9 67a6 983a becf 3739 33b3 09bb
000001c0: 92f3 163b 0e8d 813a a30e 9dba d155 88bb
000001d0: 4723 f4bb d40f f8bb d105 97bb ada3 403b
000001e0: 27c3 753b f0b1 733b 482d 903b dd6f ca3b
000001f0: 507a ed3b 5e2d d63b 0181 67bb 3959 90bb
00000200: 7877 8ebb af20 51bb e546 8bba c8c5 99b9
00000210: a6cb 4dba 6726 cbba c3e3 3cbb 8b97 89bb
00000220: 4a0f 5ebb 7d55 c4b9 c808 dc3a 87bb 043b
00000230: 027e dc3a dacd 713a 5139 1aba e253 d439
00000240: 5d43 3d3b 2919 9f3b b91e bc3b 1c19 4c39
00000250: f441 eaba e4d1 b5bb 888d d2bb 3da0 a4bb
00000260: 74fb 1fbb 9d12 123a 66c6 5f3b 7497 f63a
00000270: fb5b b1ba e95e 5cbb 067e 2dbb 88d0 fb38
00000280: 31ba 663b 5757 bf3a 3a57 853a 5849 5dba
00000290: 009d faba bfe2 97ba 452a 1d3a d107 073b
000002a0: bb49 68ba d273 e6ba bfbb 2cbb 7cbc 19bb
000002b0: 28ba b8ba c1bb 96ba e9d6 f1ba afd5 9539
000002c0: 42ca b839 3082 8e3a dda5 a93a aca5 5f3a
000002d0: d3d0 1c3a 23c5 8b3a 8ddc 943a b1dd 053b
000002e0: ab76 6c3b a160 673b d205 103b 289d de3a
000002f0: 2d37 393b 0c00 b539 7a5e 533a 5eed 653a
00000300: 7e07 1a3a f6aa a239 b333 a139 3bd5 e339
00000310: efe3 9aba 5d48 10bb b4fa 6cbb 1d84 5fbb
00000320: 93e2 09bb 0bd8 d8ba 5d57 31bb 18d4 543a
00000330: b6ce b43a 4efc 303b 959f 353b 6db0 e43a
00000340: 03ad ac3a 41b7 123b dd45 f83a 77c2 ca3a
00000350: 2518 c93a 5cb4 a63a 113f 2a3a 46e1 d839
00000360: 197d 383a 08ec 9f3a 308e 09ba e6c4 cfba
00000370: a5f6 adba 5a7b 1dba e4b1 b6b9 fde6 98ba
00000380: 3b6a eb3a 4da0 b739 9bbb 05ba 1f19 dbb9
00000390: 06d6 87b7 c72e c937 d257 19ba 2060 08bb
000003a0: 23ce 45bb 889a 09bb 675d e0ba 92d1 2ebb
000003b0: 5131 58bb ce6b 3cbb 0820 dab9 0784 3aba
000003c0: 8809 deb8 2901 19ba bd40 bbba 9399 88ba
000003d0: cd75 80b8 24b2 c33a b534 903a e637 993a
000003e0: a78a 883a 88a9 803a 02e3 b73a 129b d93a
000003f0: 465d 82ba ed3a 93ba 7eef baba 9ffb e6ba

exp_avg_sq f4 [64, 12, 7]
0.00013536664 0.0001349244 0.00012989652 0.00011920881 0.000112295435 0.00012041631 0.00012681731 0.0001719434
0.00017204473 0.00017442077 0.00017239597 0.00016388747 0.00016421998 0.00016860294 0.00024121303 0.00022993603
0.0002219506 0.00021599603 0.00020792305 0.00020554576 0.00021074101 0.00012274706 0.00012657823 0.00012777043
0.000121379395 0.00011382043 0.000120289886 0.0001257278 0.00019662897 0.00018840126 0.00017880801 0.0001685184
0.00016125472 0.00016473973 0.00017096945 0.00022924028 0.00022195582 0.0002197171 0.00021783578 0.00020903086
0.00020518746 0.00020949575 0.00013925355 0.00012938894 0.00012362853 0.00011986507 0.00011580791 0.000120796474
0.00013467373 0.00011087012 9.98956e-05 9.355902e-05 9.1450514e-05 9.0705726e-05 9.727795e-05 0.00011476981
9.787723e-05 8.981671e-05 8.580001e-05 8.3091385e-05 8.352115e-05 9.1188915e-05 0.0001046348 7.2461466e-05
6.650849e-05 6.665426e-05 6.604968e-05 6.296101e-05 6.50533e-05 6.901865e-05 0.00013952391 0.000136488
0.00013629532 0.00013531353 0.0001327125 0.00013657242 0.0001376151 0.00016275617 0.00016037682 0.00015883363
0.00015725278 0.00015631855 0.00016195292 0.00016718786 6.474884e-05 6.5887e-05 6.802666e-05 7.9846985e-05
0.00010763253 0.00012876178 0.00012638909 7.048057e-05 9.29039e-05 0.00012809859 0.00015549488 0.00018080835
0.00019847651 0.00018348848 9.0311296e-05 0.0001412484 0.00018885074 0.00024157122 0.00030024152 0.00035538012
0.00036164158 5.9570462e-05 5.7574343e-05 6.632596e-05 7.4301286e-05 8.9314184e-05 9.5843214e-05 8.161625e-05
8.0513506e-05 0.00010908059 0.00013169357 0.00016663839 0.00021667221 0.00026255104 0.00027036725 8.547392e-05
0.00013347906 0.00018713981 0.00023615577 0.00028290963 0.0003244384 0.00031971923 6.7655004e-05 8.2890554e-05
9.988145e-05 0.00012474209 0.00015914418 0.00018612333 0.00018031916 0.00010277703 0.00011910831 0.00014886331
0.0001988096 0.0002600597 0.00029689504 0.00026838036 0.000106036976 0.000118242395 0.00014246548 0.00018246789
0.00023465318 0.0002720817 0.00025861087 9.386259e-05 0.00010151938 0.000112616835 0.00012256601 0.00014103393
0.00016651973 0.0001712656 7.144608e-05 6.931459e-05 7.2496056e-05 6.995304e-05 6.574449e-05 7.154817e-05
7.785854e-05 7.147553e-05 7.147198e-05 7.2343275e-05 7.355594e-05 7.405912e-05 7.7540746e-05 7.9807054e-05
6.222568e-05 7.4769305e-05 9.863651e-05 7.896828e-05 6.315911e-05 6.1819344e-05 7.080693e-05 0.00013148978
0.00012401916 0.00012980834 0.00013328524 0.00013985205 0.00013692926 0.00012659215 0.00012526513 0.00012952278
0.00015056247 0.00015021235 0.00012501847 0.0001180852 0.00012576582 8.7618115e-05 8.9227105e-05 0.00010153537
9.099164e-05 9.411831e-05 9.368519e-05 8.975156e-05 8.286002e-05 9.637361e-05 0.00012433597 0.00011029567
8.051455e-05 7.585975e-05 9.033511e-05 0.00014852389 0.00014270638 0.00015316147 0.00016126319 0.00015359164
0.00014751854 0.00014317362 9.386751e-05 9.769735e-05 0.000115493545 0.00011731549 0.00010004403 9.373382e-05
9.5285504e-05 0.00010182349 9.643785e-05 0.000106736356 0.000114456954 0.00010572808 9.1347814e-05 9.2196286e-05
0.00010344009 9.507311e-05 9.918591e-05 0.000105645726 0.000115010735 9.540659e-05 8.906876e-05 0.0001106454
9.628013e-05 0.0001058853 0.00011500673 0.00013581045 0.00011499933 0.00010607762 7.20333e-05 8.7403605e-05
0.00011821139 9.681247e-05 7.3304764e-05 7.210496e-05 9.970026e-05 7.240374e-05 8.011361e-05 9.801291e-05
9.048178e-05 7.516644e-05 7.337168e-05 8.3156076e-05 0.00029339496 0.000295103 0.00032819406 0.00035892447
00000000: 35f1 0d39 7e7a 0d39 d534 0839 beff f938
00000010: 2780 eb38 0488 fc38 43fa 0439 b44b 3439
00000020: e866 3439 b8e4 3639 31c5 3439 35d9 2b39
00000030: 7732 2c39 02cb 3039 21ee 7c39 fc1a 7139
00000040: 69bb 6839 fe7c 6239 eb05 5a39 c587 5739
00000050: 5cfa 5c39 aab5 0039 16ba 0439 1dfa 0539
00000060: 118d fe38 e1b2 ee38 2444 fc38 cdd5 0339
00000070: 302e 4e39 948d 4539 697e 3b39 50b4 3039
00000080: 7c16 2939 fcbd 2c39 4346 3339 3860 7039
00000090: d0bc 6839 dc63 6639 d96a 6439 4b2f 5b39
000000a0: 9727 5739 16ac 5b39 9704 1239 94ac 0739
000000b0: 48a2 0139 1260 fb38 e6dd f238 1d54 fd38
000000c0: 3437 0d39 f182 e838 0b7f d138 1e35 c438
000000d0: 1fc9 bf38 4439 be38 b401 cc38 93b0 f038
000000e0: 7043 cd38 fb5b bc38 88ef b338 5941 ae38
000000f0: 1328 af38 ad3c bf38 616f db38 74f6 9738
00000100: 797a 8b38 bcc8 8b38 2784 8a38 ef09 8438
00000110: 396d 8838 1bbe 9038 2a4d 1239 381e 0f39
00000120: 7fea 0e39 f3e2 0d39 be28 0b39 e134 0f39
00000130: c64c 1039 87a9 2a39 d32a 2839 948c 2639
00000140: 39e4 2439 71e9 2339 e8d1 2939 264f 2f39
00000150: c5c9 8738 d02c 8a38 89a9 8e38 8673 a738
00000160: c6b8 e138 3a04 0739 5087 0439 f8ce 9338
00000170: 67d5 c238 3452 0639 570c 2339 5f97 3d39
00000180: 221e 5039 d066 4039 8265 bd38 141c 1439
00000190: 3c06 4639 484e 7d39 bc69 9d39 5052 ba39
000001a0: b69a bd39 4cdb 7938 fb7b 7138 7b18 8b38
000001b0: 33d2 9b38 304e bb38 6fff c838 6429 ab38
000001c0: 5cd9 a838 32c2 e438 3917 0a39 a7bb 2e39
000001d0: 8132 6339 01a7 8939 14c0 8d39 7640 b338
000001e0: 83f6 0b39 f63a 4439 95a0 7739 7d53 9439
000001f0: 6319 aa39 fd9f a739 01e2 8d38 87d5 ad38
00000200: 7277 d138 33cd 0239 f1df 2639 1a2a 4339
00000210: 0e14 3d39 ff89 d738 c9c9 f938 3118 1c39
00000220: 8c77 5039 9f58 8839 94a8 9b39 67b5 8c39
00000230: 2b60 de38 e7f8 f738 c962 1539 da54 3f39
00000240: 3c0d 7639 30a6 8e39 2a96 8739 18d8 c438
00000250: cde6 d438 b42c ec38 1085 0039 82e2 1339
00000260: cd9b 2e39 c295 3339 52d5 9538 fd5c 9138
00000270: 0609 9838 c1b3 9238 4ee0 8938 220c 9638
00000280: fc47 a338 22e5 9538 3ae3 9538 00b7 9738
00000290: 0b42 9a38 3050 9b38 5f9d a238 165e a738
000002a0: 287f 8238 77cd 9c38 13db ce38 c69b a538
000002b0: 4a74 8438 02a5 8138 2e7e 9438 85e0 0939
000002c0: 240b 0239 291d 0839 7cc2 0b39 40a5 1239
000002d0: ab94 0f39 d2bd 0439 9a59 0339 82d0 0739
000002e0: 4ee0 1d39 5282 1d39 6417 0339 82a4 f738
000002f0: 01e0 0339 9ebf b738 701f bb38 63ef d438
00000300: c4d2 be38 6261 c538 da78 c438 0039 bc38
00000310: 22c5 ad38 301c ca38 2f60 0239 894e e738
00000320: ebd9 a838 e516 9f38 4b72 bd38 14bd 1b39
00000330: 74a3 1539 f899 2039 c218 2939 710d 2139
00000340: 35af 1a39 e020 1639 bcda c438 dee2 cc38
00000350: 2035 f238 4607 f638 bbce d138 f692 c438
00000360: 04d4 c738 128a d538 ad3e ca38 a5d7 df38
00000370: 9c08 f038 55ba dd38 fc91 bf38 8159 c138
00000380: faed d838 fd61 c738 0802 d038 1e8e dd38
00000390: eb31 f138 0615 c838 6dca ba38 4c0a e838
000003a0: 00ea c938 bd0e de38 c52f f138 5768 0e39
000003b0: cc2b f138 fd75 de38 9510 9738 744c b738
000003c0: 42e8 f738 cd07 cb38 32bb 9938 0e37 9738
000003d0: 2b16 d138 76d7 9738 ab02 a838 488c cd38
000003e0: 09c1 bd38 ada2 9d38 1fdf 9938 1464 ae38
000003f0: ced2 9939 0eb8 9a39 7611 ac39 072e bc39

exp_avg f4 [64]
-9.0788435e-09 -8.770744e-09 -5.6786154e-09 9.542384e-09 2.4179982e-08 -6.5847945e-09 7.4376096e-09 6.577905e-08
-3.916849e-09 1.2232191e-08 1.4208837e-09 3.098338e-09 -3.5486027e-09 -2.8967635e-09 7.839515e-09 -3.5896832e-09
-8.9740854e-10 5.085401e-08 4.1331763e-10 6.2577272e-09 -2.2781892e-09 3.2126697e-09 1.0285223e-08 -1.1752723e-08
6.143001e-09 -1.5441479e-09 -1.4461841e-07 6.2943593e-09 -1.4723317e-08 -2.5540423e-09 3.643007e-09 -3.234335e-09
7.3970465e-09 -1.400707e-08 2.7091391e-09 -5.3975207e-09 6.679696e-09 -4.7557918e-09 -7.315708e-09 7.8464275e-09
-1.5336975e-09 3.3044987e-08 -3.6345785e-08 3.4000246e-07 3.2231917e-08 -9.082149e-09 -1.1970683e-07 -6.7986705e-09
-8.404415e-09 1.6316146e-09 -6.1284076e-09 1.2451016e-08 -7.0379604e-09 -4.3329575e-08 -8.326829e-09 4.7870024e-09
-1.02024714e-07 -5.113181e-09 -1.3367252e-09 -3.2769811e-09 -2.7050315e-09 -2.1313782e-09 1.5126332e-09 -2.1989377e-09
00000000: 2df9 1bb2 24ae 16b2 a11d c3b1 d9ef 2332
00000010: 58b4 cf32 7740 e2b1 e88d ff31 6a42 8d33
00000020: f894 86b1 bf25 5232 e748 c330 8aea 5431
00000030: aedb 73b1 6710 47b1 8dae 0632 60ae 76b1
00000040: 83ad 76b0 936a 5a33 4939 e32f 8d03 d731
00000050: 548e 1cb1 e2c5 5c31 e4b2 3032 06e9 49b2
00000060: 6912 d331 e039 d4b0 6848 1bb4 c545 d831
00000070: d5f1 7cb2 3083 2fb1 7558 7a31 0643 5eb1
00000080: 1c29 fe31 bfa3 70b2 ae2b 3a31 1875 b9b1
00000090: 3a83 e531 6368 a3b1 a65d fbb1 f4cc 0632
000000a0: 2fca d2b0 59ed 0d33 9d1a 1cb3 9589 b634
000000b0: 5e6f 0a33 b707 1cb2 c388 00b4 bd99 e9b1
000000c0: 0263 10b2 563f e030 0b92 d2b1 26e8 5532
000000d0: 8ed2 f1b1 5f19 3ab3 c80d 0fb2 eb7a a431
000000e0: ae18 dbb3 04b0 afb1 d6b7 b7b0 4331 61b1
000000f0: 6be3 39b1 9a77 12b1 0de5 cf30 1f1c 17b1
